Log file created at: 2017/09/01 15:37:09
Running on machine: iiticubsrv017
Log line format: [IWEF]mmdd hh:mm:ss.uuuuuu threadid file:line] msg
I0901 15:37:09.770936 56256 net.cpp:42] Initializing net from parameters: 
name: "Zeiler_conv5"
input: "data"
input: "rois"
input_dim: 1
input_dim: 3
input_dim: 224
input_dim: 224
input_dim: 1
input_dim: 5
input_dim: 1
input_dim: 1
state {
  phase: TEST
}
layer {
  name: "conv1"
  type: "Convolution"
  bottom: "data"
  top: "conv1"
  param {
    lr_mult: 0
  }
  param {
    lr_mult: 0
  }
  convolution_param {
    num_output: 96
    pad: 3
    kernel_size: 7
    stride: 2
    weight_filler {
      type: "gaussian"
      std: 0.01
    }
    bias_filler {
      type: "constant"
      value: 0
    }
  }
}
layer {
  name: "relu1"
  type: "ReLU"
  bottom: "conv1"
  top: "conv1"
}
layer {
  name: "norm1"
  type: "LRN"
  bottom: "conv1"
  top: "norm1"
  lrn_param {
    local_size: 3
    alpha: 5e-05
    beta: 0.75
    norm_region: WITHIN_CHANNEL
  }
}
layer {
  name: "pool1"
  type: "Pooling"
  bottom: "norm1"
  top: "pool1"
  pooling_param {
    pool: MAX
    kernel_size: 3
    stride: 2
    pad: 1
  }
}
layer {
  name: "conv2"
  type: "Convolution"
  bottom: "pool1"
  top: "conv2"
  param {
    lr_mult: 0
  }
  param {
    lr_mult: 0
  }
  convolution_param {
    num_output: 256
    pad: 2
    kernel_size: 5
    stride: 2
    weight_filler {
      type: "gaussian"
      std: 0.01
    }
    bias_filler {
      type: "constant"
      value: 1
    }
  }
}
layer {
  name: "relu2"
  type: "ReLU"
  bottom: "conv2"
  top: "conv2"
}
layer {
  name: "norm2"
  type: "LRN"
  bottom: "conv2"
  top: "norm2"
  lrn_param {
    local_size: 3
    alpha: 5e-05
    beta: 0.75
    norm_region: WITHIN_CHANNEL
  }
}
layer {
  name: "pool2"
  type: "Pooling"
  bottom: "norm2"
  top: "pool2"
  pooling_param {
    pool: MAX
    kernel_size: 3
    stride: 2
    pad: 1
  }
}
layer {
  name: "conv3"
  type: "Convolution"
  bottom: "pool2"
  top: "conv3"
  param {
    lr_mult: 0
  }
  param {
    lr_mult: 0
  }
  convolution_param {
    num_output: 384
    pad: 1
    kernel_size: 3
    stride: 1
    weight_filler {
      type: "gaussian"
      std: 0.01
    }
    bias_filler {
      type: "constant"
      value: 0
    }
  }
}
layer {
  name: "relu3"
  type: "ReLU"
  bottom: "conv3"
  top: "conv3"
}
layer {
  name: "conv4"
  type: "Convolution"
  bottom: "conv3"
  top: "conv4"
  param {
    lr_mult: 0
  }
  param {
    lr_mult: 0
  }
  convolution_param {
    num_output: 384
    pad: 1
    kernel_size: 3
    stride: 1
    weight_filler {
      type: "gaussian"
      std: 0.01
    }
    bias_filler {
      type: "constant"
      value: 1
    }
  }
}
layer {
  name: "relu4"
  type: "ReLU"
  bottom: "conv4"
  top: "conv4"
}
layer {
  name: "conv5"
  type: "Convolution"
  bottom: "conv4"
  top: "conv5"
  param {
    lr_mult: 0
  }
  param {
    lr_mult: 0
  }
  convolution_param {
    num_output: 256
    pad: 1
    kernel_size: 3
    stride: 1
    weight_filler {
      type: "gaussian"
      std: 0.01
    }
    bias_filler {
      type: "constant"
      value: 1
    }
  }
}
layer {
  name: "relu5"
  type: "ReLU"
  bottom: "conv5"
  top: "conv5"
}
layer {
  name: "roi_pool5"
  type: "ROIPooling"
  bottom: "conv5"
  bottom: "rois"
  top: "pool5"
  roi_pooling_param {
    pooled_h: 6
    pooled_w: 6
    spatial_scale: 0.0625
  }
}
layer {
  name: "fc6"
  type: "InnerProduct"
  bottom: "pool5"
  top: "fc6"
  param {
    lr_mult: 1
  }
  param {
    lr_mult: 2
  }
  inner_product_param {
    num_output: 4096
  }
}
layer {
  name: "relu6"
  type: "ReLU"
  bottom: "fc6"
  top: "fc6"
}
layer {
  name: "drop6"
  type: "Dropout"
  bottom: "fc6"
  top: "fc6"
  dropout_param {
    dropout_ratio: 0.5
    scale_train: false
  }
}
layer {
  name: "fc7"
  type: "InnerProduct"
  bottom: "fc6"
  top: "fc7"
  param {
    lr_mult: 1
  }
  param {
    lr_mult: 2
  }
  inner_product_param {
    num_output: 4096
  }
}
layer {
  name: "relu7"
  type: "ReLU"
  bottom: "fc7"
  top: "fc7"
}
layer {
  name: "drop7"
  type: "Dropout"
  bottom: "fc7"
  top: "fc7"
  dropout_param {
    dropout_ratio: 0.5
    scale_train: false
  }
}
layer {
  name: "cls_score"
  type: "InnerProduct"
  bottom: "fc7"
  top: "cls_score"
  param {
    lr_mult: 1
  }
  param {
    lr_mult: 2
  }
  inner_product_param {
    num_output: 11
    weight_filler {
      type: "gaussian"
      std: 0.01
    }
    bias_filler {
      type: "constant"
      value: 0
    }
  }
}
layer {
  name: "bbox_pred"
  type: "InnerProduct"
  bottom: "fc7"
  top: "bbox_pred"
  param {
    lr_mult: 1
  }
  param {
    lr_mult: 2
  }
  inner_product_param {
    num_output: 44
    weight_filler {
      type: "gaussian"
      std: 0.001
    }
    bias_filler {
      type: "constant"
      value: 0
    }
  }
}
layer {
  name: "cls_prob"
  type: "Softmax"
  bottom: "cls_score"
  top: "cls_prob"
  loss_weight: 1
}
I0901 15:37:09.771773 56256 net.cpp:380] Input 0 -> data
I0901 15:37:09.771802 56256 net.cpp:380] Input 1 -> rois
I0901 15:37:09.771839 56256 layer_factory.hpp:74] Creating layer conv1
I0901 15:37:09.771854 56256 net.cpp:90] Creating Layer conv1
I0901 15:37:09.771860 56256 net.cpp:420] conv1 <- data
I0901 15:37:09.771873 56256 net.cpp:378] conv1 -> conv1
I0901 15:37:09.771888 56256 net.cpp:120] Setting up conv1
I0901 15:37:09.772320 56256 net.cpp:127] Top shape: 1 96 112 112 (1204224)
I0901 15:37:09.772346 56256 layer_factory.hpp:74] Creating layer relu1
I0901 15:37:09.772368 56256 net.cpp:90] Creating Layer relu1
I0901 15:37:09.772374 56256 net.cpp:420] relu1 <- conv1
I0901 15:37:09.772384 56256 net.cpp:367] relu1 -> conv1 (in-place)
I0901 15:37:09.772392 56256 net.cpp:120] Setting up relu1
I0901 15:37:09.772402 56256 net.cpp:127] Top shape: 1 96 112 112 (1204224)
I0901 15:37:09.772406 56256 layer_factory.hpp:74] Creating layer norm1
I0901 15:37:09.772462 56256 net.cpp:90] Creating Layer norm1
I0901 15:37:09.772469 56256 net.cpp:420] norm1 <- conv1
I0901 15:37:09.772477 56256 net.cpp:378] norm1 -> norm1
I0901 15:37:09.772487 56256 net.cpp:120] Setting up norm1
I0901 15:37:09.772528 56256 net.cpp:127] Top shape: 1 96 112 112 (1204224)
I0901 15:37:09.772534 56256 layer_factory.hpp:74] Creating layer pool1
I0901 15:37:09.772547 56256 net.cpp:90] Creating Layer pool1
I0901 15:37:09.772552 56256 net.cpp:420] pool1 <- norm1
I0901 15:37:09.772560 56256 net.cpp:378] pool1 -> pool1
I0901 15:37:09.772572 56256 net.cpp:120] Setting up pool1
I0901 15:37:09.772583 56256 net.cpp:127] Top shape: 1 96 57 57 (311904)
I0901 15:37:09.772588 56256 layer_factory.hpp:74] Creating layer conv2
I0901 15:37:09.772600 56256 net.cpp:90] Creating Layer conv2
I0901 15:37:09.772605 56256 net.cpp:420] conv2 <- pool1
I0901 15:37:09.772619 56256 net.cpp:378] conv2 -> conv2
I0901 15:37:09.772640 56256 net.cpp:120] Setting up conv2
I0901 15:37:09.787374 56256 net.cpp:127] Top shape: 1 256 29 29 (215296)
I0901 15:37:09.787415 56256 layer_factory.hpp:74] Creating layer relu2
I0901 15:37:09.787431 56256 net.cpp:90] Creating Layer relu2
I0901 15:37:09.787436 56256 net.cpp:420] relu2 <- conv2
I0901 15:37:09.787447 56256 net.cpp:367] relu2 -> conv2 (in-place)
I0901 15:37:09.787457 56256 net.cpp:120] Setting up relu2
I0901 15:37:09.787467 56256 net.cpp:127] Top shape: 1 256 29 29 (215296)
I0901 15:37:09.787470 56256 layer_factory.hpp:74] Creating layer norm2
I0901 15:37:09.787480 56256 net.cpp:90] Creating Layer norm2
I0901 15:37:09.787484 56256 net.cpp:420] norm2 <- conv2
I0901 15:37:09.787493 56256 net.cpp:378] norm2 -> norm2
I0901 15:37:09.787502 56256 net.cpp:120] Setting up norm2
I0901 15:37:09.787544 56256 net.cpp:127] Top shape: 1 256 29 29 (215296)
I0901 15:37:09.787549 56256 layer_factory.hpp:74] Creating layer pool2
I0901 15:37:09.787559 56256 net.cpp:90] Creating Layer pool2
I0901 15:37:09.787562 56256 net.cpp:420] pool2 <- norm2
I0901 15:37:09.787570 56256 net.cpp:378] pool2 -> pool2
I0901 15:37:09.787577 56256 net.cpp:120] Setting up pool2
I0901 15:37:09.787586 56256 net.cpp:127] Top shape: 1 256 15 15 (57600)
I0901 15:37:09.787590 56256 layer_factory.hpp:74] Creating layer conv3
I0901 15:37:09.787606 56256 net.cpp:90] Creating Layer conv3
I0901 15:37:09.787609 56256 net.cpp:420] conv3 <- pool2
I0901 15:37:09.787618 56256 net.cpp:378] conv3 -> conv3
I0901 15:37:09.787629 56256 net.cpp:120] Setting up conv3
I0901 15:37:09.802968 56256 net.cpp:127] Top shape: 1 384 15 15 (86400)
I0901 15:37:09.803001 56256 layer_factory.hpp:74] Creating layer relu3
I0901 15:37:09.803012 56256 net.cpp:90] Creating Layer relu3
I0901 15:37:09.803017 56256 net.cpp:420] relu3 <- conv3
I0901 15:37:09.803026 56256 net.cpp:367] relu3 -> conv3 (in-place)
I0901 15:37:09.803035 56256 net.cpp:120] Setting up relu3
I0901 15:37:09.803041 56256 net.cpp:127] Top shape: 1 384 15 15 (86400)
I0901 15:37:09.803045 56256 layer_factory.hpp:74] Creating layer conv4
I0901 15:37:09.803058 56256 net.cpp:90] Creating Layer conv4
I0901 15:37:09.803062 56256 net.cpp:420] conv4 <- conv3
I0901 15:37:09.803071 56256 net.cpp:378] conv4 -> conv4
I0901 15:37:09.803117 56256 net.cpp:120] Setting up conv4
I0901 15:37:09.822562 56256 net.cpp:127] Top shape: 1 384 15 15 (86400)
I0901 15:37:09.822597 56256 layer_factory.hpp:74] Creating layer relu4
I0901 15:37:09.822609 56256 net.cpp:90] Creating Layer relu4
I0901 15:37:09.822614 56256 net.cpp:420] relu4 <- conv4
I0901 15:37:09.822623 56256 net.cpp:367] relu4 -> conv4 (in-place)
I0901 15:37:09.822633 56256 net.cpp:120] Setting up relu4
I0901 15:37:09.822638 56256 net.cpp:127] Top shape: 1 384 15 15 (86400)
I0901 15:37:09.822641 56256 layer_factory.hpp:74] Creating layer conv5
I0901 15:37:09.822651 56256 net.cpp:90] Creating Layer conv5
I0901 15:37:09.822654 56256 net.cpp:420] conv5 <- conv4
I0901 15:37:09.822662 56256 net.cpp:378] conv5 -> conv5
I0901 15:37:09.822670 56256 net.cpp:120] Setting up conv5
I0901 15:37:09.834808 56256 net.cpp:127] Top shape: 1 256 15 15 (57600)
I0901 15:37:09.834843 56256 layer_factory.hpp:74] Creating layer relu5
I0901 15:37:09.834853 56256 net.cpp:90] Creating Layer relu5
I0901 15:37:09.834858 56256 net.cpp:420] relu5 <- conv5
I0901 15:37:09.834867 56256 net.cpp:367] relu5 -> conv5 (in-place)
I0901 15:37:09.834874 56256 net.cpp:120] Setting up relu5
I0901 15:37:09.834880 56256 net.cpp:127] Top shape: 1 256 15 15 (57600)
I0901 15:37:09.834883 56256 layer_factory.hpp:74] Creating layer roi_pool5
I0901 15:37:09.834892 56256 net.cpp:90] Creating Layer roi_pool5
I0901 15:37:09.834895 56256 net.cpp:420] roi_pool5 <- conv5
I0901 15:37:09.834900 56256 net.cpp:420] roi_pool5 <- rois
I0901 15:37:09.834908 56256 net.cpp:378] roi_pool5 -> pool5
I0901 15:37:09.834914 56256 net.cpp:120] Setting up roi_pool5
I0901 15:37:09.834918 56256 roi_pooling_layer.cpp:44] Spatial scale: 0.0625
I0901 15:37:09.834939 56256 net.cpp:127] Top shape: 1 256 6 6 (9216)
I0901 15:37:09.834941 56256 layer_factory.hpp:74] Creating layer fc6
I0901 15:37:09.834950 56256 net.cpp:90] Creating Layer fc6
I0901 15:37:09.834954 56256 net.cpp:420] fc6 <- pool5
I0901 15:37:09.834960 56256 net.cpp:378] fc6 -> fc6
I0901 15:37:09.834967 56256 net.cpp:120] Setting up fc6
I0901 15:37:09.886893 56256 net.cpp:127] Top shape: 1 4096 (4096)
I0901 15:37:09.886916 56256 layer_factory.hpp:74] Creating layer relu6
I0901 15:37:09.886934 56256 net.cpp:90] Creating Layer relu6
I0901 15:37:09.886937 56256 net.cpp:420] relu6 <- fc6
I0901 15:37:09.886945 56256 net.cpp:367] relu6 -> fc6 (in-place)
I0901 15:37:09.886952 56256 net.cpp:120] Setting up relu6
I0901 15:37:09.886956 56256 net.cpp:127] Top shape: 1 4096 (4096)
I0901 15:37:09.886958 56256 layer_factory.hpp:74] Creating layer drop6
I0901 15:37:09.886965 56256 net.cpp:90] Creating Layer drop6
I0901 15:37:09.886968 56256 net.cpp:420] drop6 <- fc6
I0901 15:37:09.886972 56256 net.cpp:367] drop6 -> fc6 (in-place)
I0901 15:37:09.886976 56256 net.cpp:120] Setting up drop6
I0901 15:37:09.886981 56256 net.cpp:127] Top shape: 1 4096 (4096)
I0901 15:37:09.886984 56256 layer_factory.hpp:74] Creating layer fc7
I0901 15:37:09.886991 56256 net.cpp:90] Creating Layer fc7
I0901 15:37:09.886993 56256 net.cpp:420] fc7 <- fc6
I0901 15:37:09.886999 56256 net.cpp:378] fc7 -> fc7
I0901 15:37:09.887006 56256 net.cpp:120] Setting up fc7
I0901 15:37:09.909505 56256 net.cpp:127] Top shape: 1 4096 (4096)
I0901 15:37:09.909538 56256 layer_factory.hpp:74] Creating layer relu7
I0901 15:37:09.909548 56256 net.cpp:90] Creating Layer relu7
I0901 15:37:09.909553 56256 net.cpp:420] relu7 <- fc7
I0901 15:37:09.909560 56256 net.cpp:367] relu7 -> fc7 (in-place)
I0901 15:37:09.909567 56256 net.cpp:120] Setting up relu7
I0901 15:37:09.909572 56256 net.cpp:127] Top shape: 1 4096 (4096)
I0901 15:37:09.909574 56256 layer_factory.hpp:74] Creating layer drop7
I0901 15:37:09.909581 56256 net.cpp:90] Creating Layer drop7
I0901 15:37:09.909584 56256 net.cpp:420] drop7 <- fc7
I0901 15:37:09.909587 56256 net.cpp:367] drop7 -> fc7 (in-place)
I0901 15:37:09.909592 56256 net.cpp:120] Setting up drop7
I0901 15:37:09.909597 56256 net.cpp:127] Top shape: 1 4096 (4096)
I0901 15:37:09.909600 56256 layer_factory.hpp:74] Creating layer fc7_drop7_0_split
I0901 15:37:09.909636 56256 net.cpp:90] Creating Layer fc7_drop7_0_split
I0901 15:37:09.909638 56256 net.cpp:420] fc7_drop7_0_split <- fc7
I0901 15:37:09.909646 56256 net.cpp:378] fc7_drop7_0_split -> fc7_drop7_0_split_0
I0901 15:37:09.909653 56256 net.cpp:378] fc7_drop7_0_split -> fc7_drop7_0_split_1
I0901 15:37:09.909660 56256 net.cpp:120] Setting up fc7_drop7_0_split
I0901 15:37:09.909667 56256 net.cpp:127] Top shape: 1 4096 (4096)
I0901 15:37:09.909668 56256 net.cpp:127] Top shape: 1 4096 (4096)
I0901 15:37:09.909672 56256 layer_factory.hpp:74] Creating layer cls_score
I0901 15:37:09.909683 56256 net.cpp:90] Creating Layer cls_score
I0901 15:37:09.909685 56256 net.cpp:420] cls_score <- fc7_drop7_0_split_0
I0901 15:37:09.909694 56256 net.cpp:378] cls_score -> cls_score
I0901 15:37:09.909705 56256 net.cpp:120] Setting up cls_score
I0901 15:37:09.910320 56256 net.cpp:127] Top shape: 1 11 (11)
I0901 15:37:09.910326 56256 layer_factory.hpp:74] Creating layer bbox_pred
I0901 15:37:09.910336 56256 net.cpp:90] Creating Layer bbox_pred
I0901 15:37:09.910338 56256 net.cpp:420] bbox_pred <- fc7_drop7_0_split_1
I0901 15:37:09.910346 56256 net.cpp:378] bbox_pred -> bbox_pred
I0901 15:37:09.910351 56256 net.cpp:120] Setting up bbox_pred
I0901 15:37:09.912758 56256 net.cpp:127] Top shape: 1 44 (44)
I0901 15:37:09.912770 56256 layer_factory.hpp:74] Creating layer cls_prob
I0901 15:37:09.912780 56256 net.cpp:90] Creating Layer cls_prob
I0901 15:37:09.912782 56256 net.cpp:420] cls_prob <- cls_score
I0901 15:37:09.912788 56256 net.cpp:378] cls_prob -> cls_prob
I0901 15:37:09.912793 56256 net.cpp:120] Setting up cls_prob
I0901 15:37:09.912802 56256 net.cpp:127] Top shape: 1 11 (11)
I0901 15:37:09.912804 56256 net.cpp:129]     with loss weight 1
I0901 15:37:09.912818 56256 net.cpp:192] cls_prob needs backward computation.
I0901 15:37:09.912822 56256 net.cpp:194] bbox_pred does not need backward computation.
I0901 15:37:09.912824 56256 net.cpp:192] cls_score needs backward computation.
I0901 15:37:09.912827 56256 net.cpp:192] fc7_drop7_0_split needs backward computation.
…
