Log file created at: 2017/09/01 14:24:52
Running on machine: iiticubsrv017
Log line format: [IWEF]mmdd hh:mm:ss.uuuuuu threadid file:line] msg
I0901 14:24:52.347702 21893 net.cpp:42] Initializing net from parameters: 
name: "Zeiler_conv5"
input: "data"
input: "rois"
input_dim: 1
input_dim: 3
input_dim: 224
input_dim: 224
input_dim: 1
input_dim: 5
input_dim: 1
input_dim: 1
state {
  phase: TEST
}
layer {
  name: "conv1"
  type: "Convolution"
  bottom: "data"
  top: "conv1"
  param {
    lr_mult: 0
  }
  param {
    lr_mult: 0
  }
  convolution_param {
    num_output: 96
    pad: 3
    kernel_size: 7
    stride: 2
    weight_filler {
      type: "gaussian"
      std: 0.01
    }
    bias_filler {
      type: "constant"
      value: 0
    }
  }
}
layer {
  name: "relu1"
  type: "ReLU"
  bottom: "conv1"
  top: "conv1"
}
layer {
  name: "norm1"
  type: "LRN"
  bottom: "conv1"
  top: "norm1"
  lrn_param {
    local_size: 3
    alpha: 5e-05
    beta: 0.75
    norm_region: WITHIN_CHANNEL
  }
}
layer {
  name: "pool1"
  type: "Pooling"
  bottom: "norm1"
  top: "pool1"
  pooling_param {
    pool: MAX
    kernel_size: 3
    stride: 2
    pad: 1
  }
}
layer {
  name: "conv2"
  type: "Convolution"
  bottom: "pool1"
  top: "conv2"
  param {
    lr_mult: 0
  }
  param {
    lr_mult: 0
  }
  convolution_param {
    num_output: 256
    pad: 2
    kernel_size: 5
    stride: 2
    weight_filler {
      type: "gaussian"
      std: 0.01
    }
    bias_filler {
      type: "constant"
      value: 1
    }
  }
}
layer {
  name: "relu2"
  type: "ReLU"
  bottom: "conv2"
  top: "conv2"
}
layer {
  name: "norm2"
  type: "LRN"
  bottom: "conv2"
  top: "norm2"
  lrn_param {
    local_size: 3
    alpha: 5e-05
    beta: 0.75
    norm_region: WITHIN_CHANNEL
  }
}
layer {
  name: "pool2"
  type: "Pooling"
  bottom: "norm2"
  top: "pool2"
  pooling_param {
    pool: MAX
    kernel_size: 3
    stride: 2
    pad: 1
  }
}
layer {
  name: "conv3"
  type: "Convolution"
  bottom: "pool2"
  top: "conv3"
  param {
    lr_mult: 0
  }
  param {
    lr_mult: 0
  }
  convolution_param {
    num_output: 384
    pad: 1
    kernel_size: 3
    stride: 1
    weight_filler {
      type: "gaussian"
      std: 0.01
    }
    bias_filler {
      type: "constant"
      value: 0
    }
  }
}
layer {
  name: "relu3"
  type: "ReLU"
  bottom: "conv3"
  top: "conv3"
}
layer {
  name: "conv4"
  type: "Convolution"
  bottom: "conv3"
  top: "conv4"
  param {
    lr_mult: 0
  }
  param {
    lr_mult: 0
  }
  convolution_param {
    num_output: 384
    pad: 1
    kernel_size: 3
    stride: 1
    weight_filler {
      type: "gaussian"
      std: 0.01
    }
    bias_filler {
      type: "constant"
      value: 1
    }
  }
}
layer {
  name: "relu4"
  type: "ReLU"
  bottom: "conv4"
  top: "conv4"
}
layer {
  name: "conv5"
  type: "Convolution"
  bottom: "conv4"
  top: "conv5"
  param {
    lr_mult: 0
  }
  param {
    lr_mult: 0
  }
  convolution_param {
    num_output: 256
    pad: 1
    kernel_size: 3
    stride: 1
    weight_filler {
      type: "gaussian"
      std: 0.01
    }
    bias_filler {
      type: "constant"
      value: 1
    }
  }
}
layer {
  name: "relu5"
  type: "ReLU"
  bottom: "conv5"
  top: "conv5"
}
layer {
  name: "roi_pool5"
  type: "ROIPooling"
  bottom: "conv5"
  bottom: "rois"
  top: "pool5"
  roi_pooling_param {
    pooled_h: 6
    pooled_w: 6
    spatial_scale: 0.0625
  }
}
layer {
  name: "fc6"
  type: "InnerProduct"
  bottom: "pool5"
  top: "fc6"
  param {
    lr_mult: 1
  }
  param {
    lr_mult: 2
  }
  inner_product_param {
    num_output: 4096
  }
}
layer {
  name: "relu6"
  type: "ReLU"
  bottom: "fc6"
  top: "fc6"
}
layer {
  name: "drop6"
  type: "Dropout"
  bottom: "fc6"
  top: "fc6"
  dropout_param {
    dropout_ratio: 0.5
    scale_train: false
  }
}
layer {
  name: "fc7"
  type: "InnerProduct"
  bottom: "fc6"
  top: "fc7"
  param {
    lr_mult: 1
  }
  param {
    lr_mult: 2
  }
  inner_product_param {
    num_output: 4096
  }
}
layer {
  name: "relu7"
  type: "ReLU"
  bottom: "fc7"
  top: "fc7"
}
layer {
  name: "drop7"
  type: "Dropout"
  bottom: "fc7"
  top: "fc7"
  dropout_param {
    dropout_ratio: 0.5
    scale_train: false
  }
}
layer {
  name: "cls_score"
  type: "InnerProduct"
  bottom: "fc7"
  top: "cls_score"
  param {
    lr_mult: 1
  }
  param {
    lr_mult: 2
  }
  inner_product_param {
    num_output: 11
    weight_filler {
      type: "gaussian"
      std: 0.01
    }
    bias_filler {
      type: "constant"
      value: 0
    }
  }
}
layer {
  name: "bbox_pred"
  type: "InnerProduct"
  bottom: "fc7"
  top: "bbox_pred"
  param {
    lr_mult: 1
  }
  param {
    lr_mult: 2
  }
  inner_product_param {
    num_output: 44
    weight_filler {
      type: "gaussian"
      std: 0.001
    }
    bias_filler {
      type: "constant"
      value: 0
    }
  }
}
layer {
  name: "cls_prob"
  type: "Softmax"
  bottom: "cls_score"
  top: "cls_prob"
  loss_weight: 1
}
I0901 14:24:52.348250 21893 net.cpp:380] Input 0 -> data
I0901 14:24:52.348278 21893 net.cpp:380] Input 1 -> rois
I0901 14:24:52.348304 21893 layer_factory.hpp:74] Creating layer conv1
I0901 14:24:52.348348 21893 net.cpp:90] Creating Layer conv1
I0901 14:24:52.348354 21893 net.cpp:420] conv1 <- data
I0901 14:24:52.348364 21893 net.cpp:378] conv1 -> conv1
I0901 14:24:52.348378 21893 net.cpp:120] Setting up conv1
I0901 14:24:52.348796 21893 net.cpp:127] Top shape: 1 96 112 112 (1204224)
I0901 14:24:52.348824 21893 layer_factory.hpp:74] Creating layer relu1
I0901 14:24:52.348839 21893 net.cpp:90] Creating Layer relu1
I0901 14:24:52.348843 21893 net.cpp:420] relu1 <- conv1
I0901 14:24:52.348851 21893 net.cpp:367] relu1 -> conv1 (in-place)
I0901 14:24:52.348858 21893 net.cpp:120] Setting up relu1
I0901 14:24:52.348866 21893 net.cpp:127] Top shape: 1 96 112 112 (1204224)
I0901 14:24:52.348870 21893 layer_factory.hpp:74] Creating layer norm1
I0901 14:24:52.348879 21893 net.cpp:90] Creating Layer norm1
I0901 14:24:52.348883 21893 net.cpp:420] norm1 <- conv1
I0901 14:24:52.348889 21893 net.cpp:378] norm1 -> norm1
I0901 14:24:52.348897 21893 net.cpp:120] Setting up norm1
I0901 14:24:52.348932 21893 net.cpp:127] Top shape: 1 96 112 112 (1204224)
I0901 14:24:52.348937 21893 layer_factory.hpp:74] Creating layer pool1
I0901 14:24:52.348943 21893 net.cpp:90] Creating Layer pool1
I0901 14:24:52.348948 21893 net.cpp:420] pool1 <- norm1
I0901 14:24:52.348955 21893 net.cpp:378] pool1 -> pool1
I0901 14:24:52.348963 21893 net.cpp:120] Setting up pool1
I0901 14:24:52.348974 21893 net.cpp:127] Top shape: 1 96 57 57 (311904)
I0901 14:24:52.348978 21893 layer_factory.hpp:74] Creating layer conv2
I0901 14:24:52.348989 21893 net.cpp:90] Creating Layer conv2
I0901 14:24:52.348992 21893 net.cpp:420] conv2 <- pool1
I0901 14:24:52.349001 21893 net.cpp:378] conv2 -> conv2
I0901 14:24:52.349009 21893 net.cpp:120] Setting up conv2
I0901 14:24:52.362479 21893 net.cpp:127] Top shape: 1 256 29 29 (215296)
I0901 14:24:52.362512 21893 layer_factory.hpp:74] Creating layer relu2
I0901 14:24:52.362521 21893 net.cpp:90] Creating Layer relu2
I0901 14:24:52.362524 21893 net.cpp:420] relu2 <- conv2
I0901 14:24:52.362532 21893 net.cpp:367] relu2 -> conv2 (in-place)
I0901 14:24:52.362538 21893 net.cpp:120] Setting up relu2
I0901 14:24:52.362545 21893 net.cpp:127] Top shape: 1 256 29 29 (215296)
I0901 14:24:52.362548 21893 layer_factory.hpp:74] Creating layer norm2
I0901 14:24:52.362557 21893 net.cpp:90] Creating Layer norm2
I0901 14:24:52.362560 21893 net.cpp:420] norm2 <- conv2
I0901 14:24:52.362567 21893 net.cpp:378] norm2 -> norm2
I0901 14:24:52.362573 21893 net.cpp:120] Setting up norm2
I0901 14:24:52.362603 21893 net.cpp:127] Top shape: 1 256 29 29 (215296)
I0901 14:24:52.362607 21893 layer_factory.hpp:74] Creating layer pool2
I0901 14:24:52.362614 21893 net.cpp:90] Creating Layer pool2
I0901 14:24:52.362617 21893 net.cpp:420] pool2 <- norm2
I0901 14:24:52.362624 21893 net.cpp:378] pool2 -> pool2
I0901 14:24:52.362630 21893 net.cpp:120] Setting up pool2
I0901 14:24:52.362639 21893 net.cpp:127] Top shape: 1 256 15 15 (57600)
I0901 14:24:52.362643 21893 layer_factory.hpp:74] Creating layer conv3
I0901 14:24:52.362653 21893 net.cpp:90] Creating Layer conv3
I0901 14:24:52.362658 21893 net.cpp:420] conv3 <- pool2
I0901 14:24:52.362665 21893 net.cpp:378] conv3 -> conv3
I0901 14:24:52.362674 21893 net.cpp:120] Setting up conv3
I0901 14:24:52.380338 21893 net.cpp:127] Top shape: 1 384 15 15 (86400)
I0901 14:24:52.380352 21893 layer_factory.hpp:74] Creating layer relu3
I0901 14:24:52.380362 21893 net.cpp:90] Creating Layer relu3
I0901 14:24:52.380365 21893 net.cpp:420] relu3 <- conv3
I0901 14:24:52.380374 21893 net.cpp:367] relu3 -> conv3 (in-place)
I0901 14:24:52.380380 21893 net.cpp:120] Setting up relu3
I0901 14:24:52.380390 21893 net.cpp:127] Top shape: 1 384 15 15 (86400)
I0901 14:24:52.380393 21893 layer_factory.hpp:74] Creating layer conv4
I0901 14:24:52.380403 21893 net.cpp:90] Creating Layer conv4
I0901 14:24:52.380406 21893 net.cpp:420] conv4 <- conv3
I0901 14:24:52.380419 21893 net.cpp:378] conv4 -> conv4
I0901 14:24:52.380480 21893 net.cpp:120] Setting up conv4
I0901 14:24:52.403797 21893 net.cpp:127] Top shape: 1 384 15 15 (86400)
I0901 14:24:52.403806 21893 layer_factory.hpp:74] Creating layer relu4
I0901 14:24:52.403813 21893 net.cpp:90] Creating Layer relu4
I0901 14:24:52.403816 21893 net.cpp:420] relu4 <- conv4
I0901 14:24:52.403822 21893 net.cpp:367] relu4 -> conv4 (in-place)
I0901 14:24:52.403827 21893 net.cpp:120] Setting up relu4
I0901 14:24:52.403833 21893 net.cpp:127] Top shape: 1 384 15 15 (86400)
I0901 14:24:52.403836 21893 layer_factory.hpp:74] Creating layer conv5
I0901 14:24:52.403854 21893 net.cpp:90] Creating Layer conv5
I0901 14:24:52.403857 21893 net.cpp:420] conv5 <- conv4
I0901 14:24:52.403864 21893 net.cpp:378] conv5 -> conv5
I0901 14:24:52.403872 21893 net.cpp:120] Setting up conv5
I0901 14:24:52.418011 21893 net.cpp:127] Top shape: 1 256 15 15 (57600)
I0901 14:24:52.418021 21893 layer_factory.hpp:74] Creating layer relu5
I0901 14:24:52.418027 21893 net.cpp:90] Creating Layer relu5
I0901 14:24:52.418030 21893 net.cpp:420] relu5 <- conv5
I0901 14:24:52.418036 21893 net.cpp:367] relu5 -> conv5 (in-place)
I0901 14:24:52.418041 21893 net.cpp:120] Setting up relu5
I0901 14:24:52.418046 21893 net.cpp:127] Top shape: 1 256 15 15 (57600)
I0901 14:24:52.418050 21893 layer_factory.hpp:74] Creating layer roi_pool5
I0901 14:24:52.418056 21893 net.cpp:90] Creating Layer roi_pool5
I0901 14:24:52.418059 21893 net.cpp:420] roi_pool5 <- conv5
I0901 14:24:52.418063 21893 net.cpp:420] roi_pool5 <- rois
I0901 14:24:52.418069 21893 net.cpp:378] roi_pool5 -> pool5
I0901 14:24:52.418076 21893 net.cpp:120] Setting up roi_pool5
I0901 14:24:52.418078 21893 roi_pooling_layer.cpp:44] Spatial scale: 0.0625
I0901 14:24:52.418099 21893 net.cpp:127] Top shape: 1 256 6 6 (9216)
I0901 14:24:52.418102 21893 layer_factory.hpp:74] Creating layer fc6
I0901 14:24:52.418110 21893 net.cpp:90] Creating Layer fc6
I0901 14:24:52.418113 21893 net.cpp:420] fc6 <- pool5
I0901 14:24:52.418120 21893 net.cpp:378] fc6 -> fc6
I0901 14:24:52.418126 21893 net.cpp:120] Setting up fc6
I0901 14:24:52.474702 21893 net.cpp:127] Top shape: 1 4096 (4096)
I0901 14:24:52.474719 21893 layer_factory.hpp:74] Creating layer relu6
I0901 14:24:52.474730 21893 net.cpp:90] Creating Layer relu6
I0901 14:24:52.474735 21893 net.cpp:420] relu6 <- fc6
I0901 14:24:52.474740 21893 net.cpp:367] relu6 -> fc6 (in-place)
I0901 14:24:52.474746 21893 net.cpp:120] Setting up relu6
I0901 14:24:52.474750 21893 net.cpp:127] Top shape: 1 4096 (4096)
I0901 14:24:52.474752 21893 layer_factory.hpp:74] Creating layer drop6
I0901 14:24:52.474761 21893 net.cpp:90] Creating Layer drop6
I0901 14:24:52.474762 21893 net.cpp:420] drop6 <- fc6
I0901 14:24:52.474767 21893 net.cpp:367] drop6 -> fc6 (in-place)
I0901 14:24:52.474771 21893 net.cpp:120] Setting up drop6
I0901 14:24:52.474776 21893 net.cpp:127] Top shape: 1 4096 (4096)
I0901 14:24:52.474777 21893 layer_factory.hpp:74] Creating layer fc7
I0901 14:24:52.474784 21893 net.cpp:90] Creating Layer fc7
I0901 14:24:52.474786 21893 net.cpp:420] fc7 <- fc6
I0901 14:24:52.474792 21893 net.cpp:378] fc7 -> fc7
I0901 14:24:52.474798 21893 net.cpp:120] Setting up fc7
I0901 14:24:52.498286 21893 net.cpp:127] Top shape: 1 4096 (4096)
I0901 14:24:52.498304 21893 layer_factory.hpp:74] Creating layer relu7
I0901 14:24:52.498314 21893 net.cpp:90] Creating Layer relu7
I0901 14:24:52.498317 21893 net.cpp:420] relu7 <- fc7
I0901 14:24:52.498324 21893 net.cpp:367] relu7 -> fc7 (in-place)
I0901 14:24:52.498332 21893 net.cpp:120] Setting up relu7
I0901 14:24:52.498335 21893 net.cpp:127] Top shape: 1 4096 (4096)
I0901 14:24:52.498337 21893 layer_factory.hpp:74] Creating layer drop7
I0901 14:24:52.498343 21893 net.cpp:90] Creating Layer drop7
I0901 14:24:52.498345 21893 net.cpp:420] drop7 <- fc7
I0901 14:24:52.498350 21893 net.cpp:367] drop7 -> fc7 (in-place)
I0901 14:24:52.498354 21893 net.cpp:120] Setting up drop7
I0901 14:24:52.498359 21893 net.cpp:127] Top shape: 1 4096 (4096)
I0901 14:24:52.498361 21893 layer_factory.hpp:74] Creating layer fc7_drop7_0_split
I0901 14:24:52.498442 21893 net.cpp:90] Creating Layer fc7_drop7_0_split
I0901 14:24:52.498445 21893 net.cpp:420] fc7_drop7_0_split <- fc7
I0901 14:24:52.498450 21893 net.cpp:378] fc7_drop7_0_split -> fc7_drop7_0_split_0
I0901 14:24:52.498457 21893 net.cpp:378] fc7_drop7_0_split -> fc7_drop7_0_split_1
I0901 14:24:52.498462 21893 net.cpp:120] Setting up fc7_drop7_0_split
I0901 14:24:52.498468 21893 net.cpp:127] Top shape: 1 4096 (4096)
I0901 14:24:52.498471 21893 net.cpp:127] Top shape: 1 4096 (4096)
I0901 14:24:52.498472 21893 layer_factory.hpp:74] Creating layer cls_score
I0901 14:24:52.498482 21893 net.cpp:90] Creating Layer cls_score
I0901 14:24:52.498484 21893 net.cpp:420] cls_score <- fc7_drop7_0_split_0
I0901 14:24:52.498492 21893 net.cpp:378] cls_score -> cls_score
I0901 14:24:52.498502 21893 net.cpp:120] Setting up cls_score
I0901 14:24:52.499068 21893 net.cpp:127] Top shape: 1 11 (11)
I0901 14:24:52.499073 21893 layer_factory.hpp:74] Creating layer bbox_pred
I0901 14:24:52.499080 21893 net.cpp:90] Creating Layer bbox_pred
I0901 14:24:52.499083 21893 net.cpp:420] bbox_pred <- fc7_drop7_0_split_1
I0901 14:24:52.499089 21893 net.cpp:378] bbox_pred -> bbox_pred
I0901 14:24:52.499094 21893 net.cpp:120] Setting up bbox_pred
I0901 14:24:52.501148 21893 net.cpp:127] Top shape: 1 44 (44)
I0901 14:24:52.501157 21893 layer_factory.hpp:74] Creating layer cls_prob
I0901 14:24:52.501164 21893 net.cpp:90] Creating Layer cls_prob
I0901 14:24:52.501166 21893 net.cpp:420] cls_prob <- cls_score
I0901 14:24:52.501171 21893 net.cpp:378] cls_prob -> cls_prob
I0901 14:24:52.501175 21893 net.cpp:120] Setting up cls_prob
I0901 14:24:52.501183 21893 net.cpp:127] Top shape: 1 11 (11)
I0901 14:24:52.501185 21893 net.cpp:129]     with loss weight 1
I0901 14:24:52.501196 21893 net.cpp:192] cls_prob needs backward computation.
I0901 14:24:52.501199 21893 net.cpp:194] bbox_pred does not need backward computation.
I0901 14:24:52.501201 21893 net.cpp:192] cls_score needs backward computation.
I0901 14:24:52.501204 21893 net.cpp:192] fc7_drop7_0_split needs backward computation.
…
I0901 14:24:52.796324 21893 net.cpp:743] Ignoring source layer cls_score_cls_score_0_split
I0901 14:24:52.796326 21893 net.cpp:746] Copying source layer bbox_pred
I0901 14:24:52.796495 21893 net.cpp:743] Ignoring source layer loss
I0901 14:24:52.796499 21893 net.cpp:743] Ignoring source layer accuarcy
I0901 14:24:52.796500 21893 net.cpp:743] Ignoring source layer loss_bbox
I0901 14:29:48.052337 21893 net.cpp:42] Initializing net from parameters: 
name: "Zeiler_conv5"
input: "data"
input_dim: 1
input_dim: 3
input_dim: 224
input_dim: 224
state {
  phase: TEST
}
layer {
  name: "conv1"
  type: "Convolution"
  bottom: "data"
  top: "conv1"
  param {
    lr_mult: 1
  }
  param {
    lr_mult: 2
  }
  convolution_param {
    num_output: 96
    pad: 3
    kernel_size: 7
    stride: 2
    weight_filler {
      type: "gaussian"
      std: 0.01
    }
    bias_filler {
      type: "constant"
      value: 0
    }
  }
}
layer {
  name: "relu1"
  type: "ReLU"
  bottom: "conv1"
  top: "conv1"
}
layer {
  name: "norm1"
  type: "LRN"
  bottom: "conv1"
  top: "norm1"
  lrn_param {
    local_size: 3
    alpha: 5e-05
    beta: 0.75
    norm_region: WITHIN_CHANNEL
  }
}
layer {
  name: "pool1"
  type: "Pooling"
  bottom: "norm1"
  top: "pool1"
  pooling_param {
    pool: MAX
    kernel_size: 3
    stride: 2
    pad: 1
  }
}
layer {
  name: "conv2"
  type: "Convolution"
  bottom: "pool1"
  top: "conv2"
  param {
    lr_mult: 1
  }
  param {
    lr_mult: 2
  }
  convolution_param {
    num_output: 256
    pad: 2
    kernel_size: 5
    stride: 2
    weight_filler {
      type: "gaussian"
      std: 0.01
    }
    bias_filler {
      type: "constant"
      value: 1
    }
  }
}
layer {
  name: "relu2"
  type: "ReLU"
  bottom: "conv2"
  top: "conv2"
}
layer {
  name: "norm2"
  type: "LRN"
  bottom: "conv2"
  top: "norm2"
  lrn_param {
    local_size: 3
    alpha: 5e-05
    beta: 0.75
    norm_region: WITHIN_CHANNEL
  }
}
layer {
  name: "pool2"
  type: "Pooling"
  bottom: "norm2"
  top: "pool2"
  pooling_param {
    pool: MAX
    kernel_size: 3
    stride: 2
    pad: 1
  }
}
layer {
  name: "conv3"
  type: "Convolution"
  bottom: "pool2"
  top: "conv3"
  param {
    lr_mult: 1
  }
  param {
    lr_mult: 2
  }
  convolution_param {
    num_output: 384
    pad: 1
    kernel_size: 3
    stride: 1
    weight_filler {
      type: "gaussian"
      std: 0.01
    }
    bias_filler {
      type: "constant"
      value: 0
    }
  }
}
layer {
  name: "relu3"
  type: "ReLU"
  bottom: "conv3"
  top: "conv3"
}
layer {
  name: "conv4"
  type: "Convolution"
  bottom: "conv3"
  top: "conv4"
  param {
    lr_mult: 1
  }
  param {
    lr_mult: 2
  }
  convolution_param {
    num_output: 384
    pad: 1
    kernel_size: 3
    stride: 1
    weight_filler {
      type: "gaussian"
      std: 0.01
    }
    bias_filler {
      type: "constant"
      value: 1
    }
  }
}
layer {
  name: "relu4"
  type: "ReLU"
  bottom: "conv4"
  top: "conv4"
}
layer {
  name: "conv5"
  type: "Convolution"
  bottom: "conv4"
  top: "conv5"
  param {
    lr_mult: 1
  }
  param {
    lr_mult: 2
  }
  convolution_param {
    num_output: 256
    pad: 1
    kernel_size: 3
    stride: 1
    weight_filler {
      type: "gaussian"
      std: 0.01
    }
    bias_filler {
      type: "constant"
      value: 1
    }
  }
}
layer {
  name: "relu5"
  type: "ReLU"
  bottom: "conv5"
  top: "conv5"
}
layer {
  name: "conv_proposal1"
  type: "Convolution"
  bottom: "conv5"
  top: "conv_proposal1"
  param {
    lr_mult: 1
  }
  param {
    lr_mult: 2
  }
  convolution_param {
    num_output: 256
    pad: 1
    kernel_size: 3
    stride: 1
    weight_filler {
      type: "gaussian"
      std: 0.01
    }
    bias_filler {
      type: "constant"
      value: 0
    }
  }
}
layer {
  name: "relu_proposal1"
  type: "ReLU"
  bottom: "conv_proposal1"
  top: "conv_proposal1"
}
layer {
  name: "proposal_cls_score"
  type: "Convolution"
  bottom: "conv_proposal1"
  top: "proposal_cls_score"
  param {
    lr_mult: 1
  }
  param {
    lr_mult: 2
  }
  convolution_param {
    num_output: 18
    pad: 0
    kernel_size: 1
    stride: 1
    weight_filler {
      type: "gaussian"
      std: 0.01
    }
    bias_filler {
      type: "constant"
      value: 0
    }
  }
}
layer {
  name: "proposal_bbox_pred"
  type: "Convolution"
  bottom: "conv_proposal1"
  top: "proposal_bbox_pred"
  param {
    lr_mult: 1
  }
  param {
    lr_mult: 2
  }
  convolution_param {
    num_output: 36
    pad: 0
    kernel_size: 1
    stride: 1
    weight_filler {
      type: "gaussian"
      std: 0.01
    }
    bias_filler {
      type: "constant"
      value: 0
    }
  }
}
layer {
  name: "proposal_cls_score_reshape"
  type: "Reshape"
  bottom: "proposal_cls_score"
  top: "proposal_cls_score_reshape"
  reshape_param {
    shape {
      dim: 0
      dim: 2
      dim: -1
      dim: 0
    }
  }
}
layer {
  name: "proposal_cls_prob"
  type: "Softmax"
  bottom: "proposal_cls_score_reshape"
  top: "proposal_cls_prob"
}
I0901 14:29:48.052795 21893 net.cpp:380] Input 0 -> data
I0901 14:29:48.052834 21893 layer_factory.hpp:74] Creating layer conv1
I0901 14:29:48.052848 21893 net.cpp:90] Creating Layer conv1
I0901 14:29:48.052853 21893 net.cpp:420] conv1 <- data
I0901 14:29:48.052865 21893 net.cpp:378] conv1 -> conv1
I0901 14:29:48.052878 21893 net.cpp:120] Setting up conv1
I0901 14:29:48.053254 21893 net.cpp:127] Top shape: 1 96 112 112 (1204224)
I0901 14:29:48.053335 21893 layer_factory.hpp:74] Creating layer relu1
I0901 14:29:48.053347 21893 net.cpp:90] Creating Layer relu1
I0901 14:29:48.053350 21893 net.cpp:420] relu1 <- conv1
I0901 14:29:48.053355 21893 net.cpp:367] relu1 -> conv1 (in-place)
I0901 14:29:48.053360 21893 net.cpp:120] Setting up relu1
I0901 14:29:48.053366 21893 net.cpp:127] Top shape: 1 96 112 112 (1204224)
I0901 14:29:48.053367 21893 layer_factory.hpp:74] Creating layer norm1
I0901 14:29:48.053373 21893 net.cpp:90] Creating Layer norm1
I0901 14:29:48.053375 21893 net.cpp:420] norm1 <- conv1
I0901 14:29:48.053378 21893 net.cpp:378] norm1 -> norm1
I0901 14:29:48.053381 21893 net.cpp:120] Setting up norm1
I0901 14:29:48.053402 21893 net.cpp:127] Top shape: 1 96 112 112 (1204224)
I0901 14:29:48.053405 21893 layer_factory.hpp:74] Creating layer pool1
I0901 14:29:48.053408 21893 net.cpp:90] Creating Layer pool1
I0901 14:29:48.053411 21893 net.cpp:420] pool1 <- norm1
I0901 14:29:48.053413 21893 net.cpp:378] pool1 -> pool1
I0901 14:29:48.053416 21893 net.cpp:120] Setting up pool1
I0901 14:29:48.053419 21893 net.cpp:127] Top shape: 1 96 57 57 (311904)
I0901 14:29:48.053421 21893 layer_factory.hpp:74] Creating layer conv2
I0901 14:29:48.053427 21893 net.cpp:90] Creating Layer conv2
I0901 14:29:48.053429 21893 net.cpp:420] conv2 <- pool1
I0901 14:29:48.053432 21893 net.cpp:378] conv2 -> conv2
I0901 14:29:48.053436 21893 net.cpp:120] Setting up conv2
I0901 14:29:48.058861 21893 net.cpp:127] Top shape: 1 256 29 29 (215296)
I0901 14:29:48.058867 21893 layer_factory.hpp:74] Creating layer relu2
I0901 14:29:48.058872 21893 net.cpp:90] Creating Layer relu2
I0901 14:29:48.058873 21893 net.cpp:420] relu2 <- conv2
I0901 14:29:48.058877 21893 net.cpp:367] relu2 -> conv2 (in-place)
I0901 14:29:48.058881 21893 net.cpp:120] Setting up relu2
I0901 14:29:48.058882 21893 net.cpp:127] Top shape: 1 256 29 29 (215296)
I0901 14:29:48.058884 21893 layer_factory.hpp:74] Creating layer norm2
I0901 14:29:48.058888 21893 net.cpp:90] Creating Layer norm2
I0901 14:29:48.058890 21893 net.cpp:420] norm2 <- conv2
I0901 14:29:48.058893 21893 net.cpp:378] norm2 -> norm2
I0901 14:29:48.058897 21893 net.cpp:120] Setting up norm2
I0901 14:29:48.058909 21893 net.cpp:127] Top shape: 1 256 29 29 (215296)
I0901 14:29:48.058912 21893 layer_factory.hpp:74] Creating layer pool2
I0901 14:29:48.058917 21893 net.cpp:90] Creating Layer pool2
I0901 14:29:48.058917 21893 net.cpp:420] pool2 <- norm2
I0901 14:29:48.058920 21893 net.cpp:378] pool2 -> pool2
I0901 14:29:48.058923 21893 net.cpp:120] Setting up pool2
I0901 14:29:48.058926 21893 net.cpp:127] Top shape: 1 256 15 15 (57600)
I0901 14:29:48.058928 21893 layer_factory.hpp:74] Creating layer conv3
I0901 14:29:48.058934 21893 net.cpp:90] Creating Layer conv3
I0901 14:29:48.058935 21893 net.cpp:420] conv3 <- pool2
I0901 14:29:48.058940 21893 net.cpp:378] conv3 -> conv3
I0901 14:29:48.058943 21893 net.cpp:120] Setting up conv3
I0901 14:29:48.067220 21893 net.cpp:127] Top shape: 1 384 15 15 (86400)
I0901 14:29:48.067226 21893 layer_factory.hpp:74] Creating layer relu3
I0901 14:29:48.067234 21893 net.cpp:90] Creating Layer relu3
I0901 14:29:48.067234 21893 net.cpp:420] relu3 <- conv3
I0901 14:29:48.067237 21893 net.cpp:367] relu3 -> conv3 (in-place)
I0901 14:29:48.067240 21893 net.cpp:120] Setting up relu3
I0901 14:29:48.067243 21893 net.cpp:127] Top shape: 1 384 15 15 (86400)
I0901 14:29:48.067245 21893 layer_factory.hpp:74] Creating layer conv4
I0901 14:29:48.067251 21893 net.cpp:90] Creating Layer conv4
I0901 14:29:48.067252 21893 net.cpp:420] conv4 <- conv3
I0901 14:29:48.067257 21893 net.cpp:378] conv4 -> conv4
I0901 14:29:48.067261 21893 net.cpp:120] Setting up conv4
I0901 14:29:48.078197 21893 net.cpp:127] Top shape: 1 384 15 15 (86400)
I0901 14:29:48.078202 21893 layer_factory.hpp:74] Creating layer relu4
I0901 14:29:48.078205 21893 net.cpp:90] Creating Layer relu4
I0901 14:29:48.078207 21893 net.cpp:420] relu4 <- conv4
I0901 14:29:48.078212 21893 net.cpp:367] relu4 -> conv4 (in-place)
I0901 14:29:48.078213 21893 net.cpp:120] Setting up relu4
I0901 14:29:48.078217 21893 net.cpp:127] Top shape: 1 384 15 15 (86400)
I0901 14:29:48.078218 21893 layer_factory.hpp:74] Creating layer conv5
I0901 14:29:48.078222 21893 net.cpp:90] Creating Layer conv5
I0901 14:29:48.078224 21893 net.cpp:420] conv5 <- conv4
I0901 14:29:48.078228 21893 net.cpp:378] conv5 -> conv5
I0901 14:29:48.078232 21893 net.cpp:120] Setting up conv5
I0901 14:29:48.085216 21893 net.cpp:127] Top shape: 1 256 15 15 (57600)
I0901 14:29:48.085222 21893 layer_factory.hpp:74] Creating layer relu5
I0901 14:29:48.085225 21893 net.cpp:90] Creating Layer relu5
I0901 14:29:48.085227 21893 net.cpp:420] relu5 <- conv5
I0901 14:29:48.085232 21893 net.cpp:367] relu5 -> conv5 (in-place)
I0901 14:29:48.085234 21893 net.cpp:120] Setting up relu5
I0901 14:29:48.085237 21893 net.cpp:127] Top shape: 1 256 15 15 (57600)
I0901 14:29:48.085238 21893 layer_factory.hpp:74] Creating layer conv_proposal1
I0901 14:29:48.085243 21893 net.cpp:90] Creating Layer conv_proposal1
I0901 14:29:48.085244 21893 net.cpp:420] conv_proposal1 <- conv5
I0901 14:29:48.085248 21893 net.cpp:378] conv_proposal1 -> conv_proposal1
I0901 14:29:48.085253 21893 net.cpp:120] Setting up conv_proposal1
I0901 14:29:48.089920 21893 net.cpp:127] Top shape: 1 256 15 15 (57600)
I0901 14:29:48.089925 21893 layer_factory.hpp:74] Creating layer relu_proposal1
I0901 14:29:48.089927 21893 net.cpp:90] Creating Layer relu_proposal1
I0901 14:29:48.089929 21893 net.cpp:420] relu_proposal1 <- conv_proposal1
I0901 14:29:48.089932 21893 net.cpp:367] relu_proposal1 -> conv_proposal1 (in-place)
I0901 14:29:48.089936 21893 net.cpp:120] Setting up relu_proposal1
I0901 14:29:48.089937 21893 net.cpp:127] Top shape: 1 256 15 15 (57600)
I0901 14:29:48.089939 21893 layer_factory.hpp:74] Creating layer conv_proposal1_relu_proposal1_0_split
I0901 14:29:48.089946 21893 net.cpp:90] Creating Layer conv_proposal1_relu_proposal1_0_split
I0901 14:29:48.089948 21893 net.cpp:420] conv_proposal1_relu_proposal1_0_split <- conv_proposal1
I0901 14:29:48.089951 21893 net.cpp:378] conv_proposal1_relu_proposal1_0_split -> conv_proposal1_relu_proposal1_0_split_0
I0901 14:29:48.089956 21893 net.cpp:378] conv_proposal1_relu_proposal1_0_split -> conv_proposal1_relu_proposal1_0_split_1
I0901 14:29:48.089959 21893 net.cpp:120] Setting up conv_proposal1_relu_proposal1_0_split
I0901 14:29:48.089963 21893 net.cpp:127] Top shape: 1 256 15 15 (57600)
I0901 14:29:48.089965 21893 net.cpp:127] Top shape: 1 256 15 15 (57600)
I0901 14:29:48.089967 21893 layer_factory.hpp:74] Creating layer proposal_cls_score
I0901 14:29:48.089972 21893 net.cpp:90] Creating Layer proposal_cls_score
I0901 14:29:48.089974 21893 net.cpp:420] proposal_cls_score <- conv_proposal1_relu_proposal1_0_split_0
I0901 14:29:48.089979 21893 net.cpp:378] proposal_cls_score -> proposal_cls_score
I0901 14:29:48.089983 21893 net.cpp:120] Setting up proposal_cls_score
I0901 14:29:48.090029 21893 net.cpp:127] Top shape: 1 18 15 15 (4050)
I0901 14:29:48.090032 21893 layer_factory.hpp:74] Creating layer proposal_bbox_pred
I0901 14:29:48.090037 21893 net.cpp:90] Creating Layer proposal_bbox_pred
I0901 14:29:48.090039 21893 net.cpp:420] proposal_bbox_pred <- conv_proposal1_relu_proposal1_0_split_1
I0901 14:29:48.090044 21893 net.cpp:378] proposal_bbox_pred -> proposal_bbox_pred
I0901 14:29:48.090049 21893 net.cpp:120] Setting up proposal_bbox_pred
I0901 14:29:48.090131 21893 net.cpp:127] Top shape: 1 36 15 15 (8100)
I0901 14:29:48.090133 21893 layer_factory.hpp:74] Creating layer proposal_cls_score_reshape
I0901 14:29:48.090139 21893 net.cpp:90] Creating Layer proposal_cls_score_reshape
I0901 14:29:48.090142 21893 net.cpp:420] proposal_cls_score_reshape <- proposal_cls_score
I0901 14:29:48.090158 21893 net.cpp:378] proposal_cls_score_reshape -> proposal_cls_score_reshape
I0901 14:29:48.090162 21893 net.cpp:120] Setting up proposal_cls_score_reshape
I0901 14:29:48.090168 21893 net.cpp:127] Top shape: 1 2 135 15 (4050)
I0901 14:29:48.090170 21893 layer_factory.hpp:74] Creating layer proposal_cls_prob
I0901 14:29:48.090174 21893 net.cpp:90] Creating Layer proposal_cls_prob
I0901 14:29:48.090175 21893 net.cpp:420] proposal_cls_prob <- proposal_cls_score_reshape
I0901 14:29:48.090179 21893 net.cpp:378] proposal_cls_prob -> proposal_cls_prob
I0901 14:29:48.090185 21893 net.cpp:120] Setting up proposal_cls_prob
I0901 14:29:48.090191 21893 net.cpp:127] Top shape: 1 2 135 15 (4050)
I0901 14:29:48.090193 21893 net.cpp:194] proposal_cls_prob does not need backward computation.
I0901 14:29:48.090194 21893 net.cpp:194] proposal_cls_score_reshape does not need backward computation.
I0901 14:29:48.090196 21893 net.cpp:194] proposal_bbox_pred does not need backward computation.
I0901 14:29:48.090198 21893 net.cpp:194] proposal_cls_score does not need backward computation.
…
