…
I0901 13:40:06.749261 21893 solver.cpp:70] Creating training net from net file: ./models/fast_rcnn_prototxts/ZF/train_val.prototxt
I0901 13:40:06.749624 21893 net.cpp:42] Initializing net from parameters: 
name: "Zeiler_conv5"
input: "data"
input: "rois"
input: "labels"
input: "bbox_targets"
input: "bbox_loss_weights"
input_dim: 1
input_dim: 3
input_dim: 224
input_dim: 224
input_dim: 1
input_dim: 5
input_dim: 1
input_dim: 1
input_dim: 1
input_dim: 1
input_dim: 1
input_dim: 1
input_dim: 1
input_dim: 44
input_dim: 1
input_dim: 1
input_dim: 1
input_dim: 44
input_dim: 1
input_dim: 1
state {
  phase: TRAIN
}
layer {
  name: "conv1"
  type: "Convolution"
  bottom: "data"
  top: "conv1"
  param {
    lr_mult: 1
  }
  param {
    lr_mult: 2
  }
  convolution_param {
    num_output: 96
    pad: 3
    kernel_size: 7
    stride: 2
    weight_filler {
      type: "gaussian"
      std: 0.01
    }
    bias_filler {
      type: "constant"
      value: 0
    }
  }
}
layer {
  name: "relu1"
  type: "ReLU"
  bottom: "conv1"
  top: "conv1"
}
layer {
  name: "norm1"
  type: "LRN"
  bottom: "conv1"
  top: "norm1"
  lrn_param {
    local_size: 3
    alpha: 5e-05
    beta: 0.75
    norm_region: WITHIN_CHANNEL
  }
}
layer {
  name: "pool1"
  type: "Pooling"
  bottom: "norm1"
  top: "pool1"
  pooling_param {
    pool: MAX
    kernel_size: 3
    stride: 2
    pad: 1
  }
}
layer {
  name: "conv2"
  type: "Convolution"
  bottom: "pool1"
  top: "conv2"
  param {
    lr_mult: 1
  }
  param {
    lr_mult: 2
  }
  convolution_param {
    num_output: 256
    pad: 2
    kernel_size: 5
    stride: 2
    weight_filler {
      type: "gaussian"
      std: 0.01
    }
    bias_filler {
      type: "constant"
      value: 1
    }
  }
}
layer {
  name: "relu2"
  type: "ReLU"
  bottom: "conv2"
  top: "conv2"
}
layer {
  name: "norm2"
  type: "LRN"
  bottom: "conv2"
  top: "norm2"
  lrn_param {
    local_size: 3
    alpha: 5e-05
    beta: 0.75
    norm_region: WITHIN_CHANNEL
  }
}
layer {
  name: "pool2"
  type: "Pooling"
  bottom: "norm2"
  top: "pool2"
  pooling_param {
    pool: MAX
    kernel_size: 3
    stride: 2
    pad: 1
  }
}
layer {
  name: "conv3"
  type: "Convolution"
  bottom: "pool2"
  top: "conv3"
  param {
    lr_mult: 1
  }
  param {
    lr_mult: 2
  }
  convolution_param {
    num_output: 384
    pad: 1
    kernel_size: 3
    stride: 1
    weight_filler {
      type: "gaussian"
      std: 0.01
    }
    bias_filler {
      type: "constant"
      value: 0
    }
  }
}
layer {
  name: "relu3"
  type: "ReLU"
  bottom: "conv3"
  top: "conv3"
}
layer {
  name: "conv4"
  type: "Convolution"
  bottom: "conv3"
  top: "conv4"
  param {
    lr_mult: 1
  }
  param {
    lr_mult: 2
  }
  convolution_param {
    num_output: 384
    pad: 1
    kernel_size: 3
    stride: 1
    weight_filler {
      type: "gaussian"
      std: 0.01
    }
    bias_filler {
      type: "constant"
      value: 1
    }
  }
}
layer {
  name: "relu4"
  type: "ReLU"
  bottom: "conv4"
  top: "conv4"
}
layer {
  name: "conv5"
  type: "Convolution"
  bottom: "conv4"
  top: "conv5"
  param {
    lr_mult: 1
  }
  param {
    lr_mult: 2
  }
  convolution_param {
    num_output: 256
    pad: 1
    kernel_size: 3
    stride: 1
    weight_filler {
      type: "gaussian"
      std: 0.01
    }
    bias_filler {
      type: "constant"
      value: 1
    }
  }
}
layer {
  name: "relu5"
  type: "ReLU"
  bottom: "conv5"
  top: "conv5"
}
layer {
  name: "roi_pool5"
  type: "ROIPooling"
  bottom: "conv5"
  bottom: "rois"
  top: "pool5"
  roi_pooling_param {
    pooled_h: 6
    pooled_w: 6
    spatial_scale: 0.0625
  }
}
layer {
  name: "fc6"
  type: "InnerProduct"
  bottom: "pool5"
  top: "fc6"
  param {
    lr_mult: 1
  }
  param {
    lr_mult: 2
  }
  inner_product_param {
    num_output: 4096
  }
}
layer {
  name: "relu6"
  type: "ReLU"
  bottom: "fc6"
  top: "fc6"
}
layer {
  name: "drop6"
  type: "Dropout"
  bottom: "fc6"
  top: "fc6"
  dropout_param {
    dropout_ratio: 0.5
    scale_train: false
  }
}
layer {
  name: "fc7"
  type: "InnerProduct"
  bottom: "fc6"
  top: "fc7"
  param {
    lr_mult: 1
  }
  param {
    lr_mult: 2
  }
  inner_product_param {
    num_output: 4096
  }
}
layer {
  name: "relu7"
  type: "ReLU"
  bottom: "fc7"
  top: "fc7"
}
layer {
  name: "drop7"
  type: "Dropout"
  bottom: "fc7"
  top: "fc7"
  dropout_param {
    dropout_ratio: 0.5
    scale_train: false
  }
}
layer {
  name: "cls_score"
  type: "InnerProduct"
  bottom: "fc7"
  top: "cls_score"
  param {
    lr_mult: 1
  }
  param {
    lr_mult: 2
  }
  inner_product_param {
    num_output: 11
    weight_filler {
      type: "gaussian"
      std: 0.01
    }
    bias_filler {
      type: "constant"
      value: 0
    }
  }
}
layer {
  name: "bbox_pred"
  type: "InnerProduct"
  bottom: "fc7"
  top: "bbox_pred"
  param {
    lr_mult: 1
  }
  param {
    lr_mult: 2
  }
  inner_product_param {
    num_output: 44
    weight_filler {
      type: "gaussian"
      std: 0.001
    }
    bias_filler {
      type: "constant"
      value: 0
    }
  }
}
layer {
  name: "loss"
  type: "SoftmaxWithLoss"
  bottom: "cls_score"
  bottom: "labels"
  top: "loss_cls"
  loss_weight: 1
}
layer {
  name: "accuarcy"
  type: "Accuracy"
  bottom: "cls_score"
  bottom: "labels"
  top: "accuarcy"
}
layer {
  name: "loss_bbox"
  type: "SmoothL1Loss"
  bottom: "bbox_pred"
  bottom: "bbox_targets"
  bottom: "bbox_loss_weights"
  top: "loss_bbox"
  loss_weight: 1
}
I0901 13:40:06.749769 21893 net.cpp:380] Input 0 -> data
I0901 13:40:06.749780 21893 net.cpp:380] Input 1 -> rois
I0901 13:40:06.749785 21893 net.cpp:380] Input 2 -> labels
I0901 13:40:06.749790 21893 net.cpp:380] Input 3 -> bbox_targets
I0901 13:40:06.749794 21893 net.cpp:380] Input 4 -> bbox_loss_weights
I0901 13:40:06.749811 21893 layer_factory.hpp:74] Creating layer labels_input_2_split
I0901 13:40:06.749820 21893 net.cpp:90] Creating Layer labels_input_2_split
I0901 13:40:06.749822 21893 net.cpp:420] labels_input_2_split <- labels
I0901 13:40:06.749828 21893 net.cpp:378] labels_input_2_split -> labels_input_2_split_0
I0901 13:40:06.749835 21893 net.cpp:378] labels_input_2_split -> labels_input_2_split_1
I0901 13:40:06.749840 21893 net.cpp:120] Setting up labels_input_2_split
I0901 13:40:06.749846 21893 net.cpp:127] Top shape: 1 1 1 1 (1)
I0901 13:40:06.749850 21893 net.cpp:127] Top shape: 1 1 1 1 (1)
I0901 13:40:06.749850 21893 layer_factory.hpp:74] Creating layer conv1
I0901 13:40:06.749858 21893 net.cpp:90] Creating Layer conv1
I0901 13:40:06.749860 21893 net.cpp:420] conv1 <- data
I0901 13:40:06.749866 21893 net.cpp:378] conv1 -> conv1
I0901 13:40:06.749869 21893 net.cpp:120] Setting up conv1
I0901 13:40:06.750015 21893 net.cpp:127] Top shape: 1 96 112 112 (1204224)
I0901 13:40:06.750025 21893 layer_factory.hpp:74] Creating layer relu1
I0901 13:40:06.750030 21893 net.cpp:90] Creating Layer relu1
I0901 13:40:06.750032 21893 net.cpp:420] relu1 <- conv1
I0901 13:40:06.750036 21893 net.cpp:367] relu1 -> conv1 (in-place)
I0901 13:40:06.750039 21893 net.cpp:120] Setting up relu1
I0901 13:40:06.750043 21893 net.cpp:127] Top shape: 1 96 112 112 (1204224)
I0901 13:40:06.750046 21893 layer_factory.hpp:74] Creating layer norm1
I0901 13:40:06.750051 21893 net.cpp:90] Creating Layer norm1
I0901 13:40:06.750051 21893 net.cpp:420] norm1 <- conv1
I0901 13:40:06.750056 21893 net.cpp:378] norm1 -> norm1
I0901 13:40:06.750061 21893 net.cpp:120] Setting up norm1
I0901 13:40:06.750080 21893 net.cpp:127] Top shape: 1 96 112 112 (1204224)
I0901 13:40:06.750082 21893 layer_factory.hpp:74] Creating layer pool1
I0901 13:40:06.750087 21893 net.cpp:90] Creating Layer pool1
I0901 13:40:06.750089 21893 net.cpp:420] pool1 <- norm1
I0901 13:40:06.750093 21893 net.cpp:378] pool1 -> pool1
I0901 13:40:06.750095 21893 net.cpp:120] Setting up pool1
I0901 13:40:06.750102 21893 net.cpp:127] Top shape: 1 96 57 57 (311904)
I0901 13:40:06.750102 21893 layer_factory.hpp:74] Creating layer conv2
I0901 13:40:06.750108 21893 net.cpp:90] Creating Layer conv2
I0901 13:40:06.750109 21893 net.cpp:420] conv2 <- pool1
I0901 13:40:06.750113 21893 net.cpp:378] conv2 -> conv2
I0901 13:40:06.750118 21893 net.cpp:120] Setting up conv2
I0901 13:40:06.755002 21893 net.cpp:127] Top shape: 1 256 29 29 (215296)
I0901 13:40:06.755019 21893 layer_factory.hpp:74] Creating layer relu2
I0901 13:40:06.755024 21893 net.cpp:90] Creating Layer relu2
I0901 13:40:06.755026 21893 net.cpp:420] relu2 <- conv2
I0901 13:40:06.755030 21893 net.cpp:367] relu2 -> conv2 (in-place)
I0901 13:40:06.755033 21893 net.cpp:120] Setting up relu2
I0901 13:40:06.755036 21893 net.cpp:127] Top shape: 1 256 29 29 (215296)
I0901 13:40:06.755038 21893 layer_factory.hpp:74] Creating layer norm2
I0901 13:40:06.755043 21893 net.cpp:90] Creating Layer norm2
I0901 13:40:06.755043 21893 net.cpp:420] norm2 <- conv2
I0901 13:40:06.755048 21893 net.cpp:378] norm2 -> norm2
I0901 13:40:06.755051 21893 net.cpp:120] Setting up norm2
I0901 13:40:06.755067 21893 net.cpp:127] Top shape: 1 256 29 29 (215296)
I0901 13:40:06.755069 21893 layer_factory.hpp:74] Creating layer pool2
I0901 13:40:06.755074 21893 net.cpp:90] Creating Layer pool2
I0901 13:40:06.755075 21893 net.cpp:420] pool2 <- norm2
I0901 13:40:06.755079 21893 net.cpp:378] pool2 -> pool2
I0901 13:40:06.755082 21893 net.cpp:120] Setting up pool2
I0901 13:40:06.755089 21893 net.cpp:127] Top shape: 1 256 15 15 (57600)
I0901 13:40:06.755089 21893 layer_factory.hpp:74] Creating layer conv3
I0901 13:40:06.755095 21893 net.cpp:90] Creating Layer conv3
I0901 13:40:06.755096 21893 net.cpp:420] conv3 <- pool2
I0901 13:40:06.755101 21893 net.cpp:378] conv3 -> conv3
I0901 13:40:06.755105 21893 net.cpp:120] Setting up conv3
I0901 13:40:06.762328 21893 net.cpp:127] Top shape: 1 384 15 15 (86400)
I0901 13:40:06.762336 21893 layer_factory.hpp:74] Creating layer relu3
I0901 13:40:06.762341 21893 net.cpp:90] Creating Layer relu3
I0901 13:40:06.762342 21893 net.cpp:420] relu3 <- conv3
I0901 13:40:06.762346 21893 net.cpp:367] relu3 -> conv3 (in-place)
I0901 13:40:06.762349 21893 net.cpp:120] Setting up relu3
I0901 13:40:06.762353 21893 net.cpp:127] Top shape: 1 384 15 15 (86400)
I0901 13:40:06.762354 21893 layer_factory.hpp:74] Creating layer conv4
I0901 13:40:06.762361 21893 net.cpp:90] Creating Layer conv4
I0901 13:40:06.762362 21893 net.cpp:420] conv4 <- conv3
I0901 13:40:06.762367 21893 net.cpp:378] conv4 -> conv4
I0901 13:40:06.762370 21893 net.cpp:120] Setting up conv4
I0901 13:40:06.773417 21893 net.cpp:127] Top shape: 1 384 15 15 (86400)
I0901 13:40:06.773422 21893 layer_factory.hpp:74] Creating layer relu4
I0901 13:40:06.773428 21893 net.cpp:90] Creating Layer relu4
I0901 13:40:06.773430 21893 net.cpp:420] relu4 <- conv4
I0901 13:40:06.773434 21893 net.cpp:367] relu4 -> conv4 (in-place)
I0901 13:40:06.773438 21893 net.cpp:120] Setting up relu4
I0901 13:40:06.773442 21893 net.cpp:127] Top shape: 1 384 15 15 (86400)
I0901 13:40:06.773443 21893 layer_factory.hpp:74] Creating layer conv5
I0901 13:40:06.773449 21893 net.cpp:90] Creating Layer conv5
I0901 13:40:06.773466 21893 net.cpp:420] conv5 <- conv4
I0901 13:40:06.773473 21893 net.cpp:378] conv5 -> conv5
I0901 13:40:06.773475 21893 net.cpp:120] Setting up conv5
I0901 13:40:06.780473 21893 net.cpp:127] Top shape: 1 256 15 15 (57600)
I0901 13:40:06.780478 21893 layer_factory.hpp:74] Creating layer relu5
I0901 13:40:06.780484 21893 net.cpp:90] Creating Layer relu5
I0901 13:40:06.780486 21893 net.cpp:420] relu5 <- conv5
I0901 13:40:06.780491 21893 net.cpp:367] relu5 -> conv5 (in-place)
I0901 13:40:06.780494 21893 net.cpp:120] Setting up relu5
I0901 13:40:06.780498 21893 net.cpp:127] Top shape: 1 256 15 15 (57600)
I0901 13:40:06.780499 21893 layer_factory.hpp:74] Creating layer roi_pool5
I0901 13:40:06.780504 21893 net.cpp:90] Creating Layer roi_pool5
I0901 13:40:06.780506 21893 net.cpp:420] roi_pool5 <- conv5
I0901 13:40:06.780508 21893 net.cpp:420] roi_pool5 <- rois
I0901 13:40:06.780514 21893 net.cpp:378] roi_pool5 -> pool5
I0901 13:40:06.780519 21893 net.cpp:120] Setting up roi_pool5
I0901 13:40:06.780521 21893 roi_pooling_layer.cpp:44] Spatial scale: 0.0625
I0901 13:40:06.780532 21893 net.cpp:127] Top shape: 1 256 6 6 (9216)
I0901 13:40:06.780534 21893 layer_factory.hpp:74] Creating layer fc6
I0901 13:40:06.780541 21893 net.cpp:90] Creating Layer fc6
I0901 13:40:06.780558 21893 net.cpp:420] fc6 <- pool5
I0901 13:40:06.780565 21893 net.cpp:378] fc6 -> fc6
I0901 13:40:06.780568 21893 net.cpp:120] Setting up fc6
I0901 13:40:06.825765 21893 net.cpp:127] Top shape: 1 4096 (4096)
I0901 13:40:06.825780 21893 layer_factory.hpp:74] Creating layer relu6
I0901 13:40:06.825798 21893 net.cpp:90] Creating Layer relu6
I0901 13:40:06.825799 21893 net.cpp:420] relu6 <- fc6
I0901 13:40:06.825808 21893 net.cpp:367] relu6 -> fc6 (in-place)
I0901 13:40:06.825814 21893 net.cpp:120] Setting up relu6
I0901 13:40:06.825821 21893 net.cpp:127] Top shape: 1 4096 (4096)
I0901 13:40:06.825824 21893 layer_factory.hpp:74] Creating layer drop6
I0901 13:40:06.825829 21893 net.cpp:90] Creating Layer drop6
I0901 13:40:06.825830 21893 net.cpp:420] drop6 <- fc6
I0901 13:40:06.825835 21893 net.cpp:367] drop6 -> fc6 (in-place)
I0901 13:40:06.825839 21893 net.cpp:120] Setting up drop6
I0901 13:40:06.825845 21893 net.cpp:127] Top shape: 1 4096 (4096)
I0901 13:40:06.825847 21893 layer_factory.hpp:74] Creating layer fc7
I0901 13:40:06.825852 21893 net.cpp:90] Creating Layer fc7
I0901 13:40:06.825855 21893 net.cpp:420] fc7 <- fc6
I0901 13:40:06.825858 21893 net.cpp:378] fc7 -> fc7
I0901 13:40:06.825863 21893 net.cpp:120] Setting up fc7
I0901 13:40:06.846107 21893 net.cpp:127] Top shape: 1 4096 (4096)
I0901 13:40:06.846120 21893 layer_factory.hpp:74] Creating layer relu7
I0901 13:40:06.846135 21893 net.cpp:90] Creating Layer relu7
I0901 13:40:06.846138 21893 net.cpp:420] relu7 <- fc7
I0901 13:40:06.846145 21893 net.cpp:367] relu7 -> fc7 (in-place)
I0901 13:40:06.846150 21893 net.cpp:120] Setting up relu7
I0901 13:40:06.846153 21893 net.cpp:127] Top shape: 1 4096 (4096)
I0901 13:40:06.846155 21893 layer_factory.hpp:74] Creating layer drop7
I0901 13:40:06.846160 21893 net.cpp:90] Creating Layer drop7
I0901 13:40:06.846163 21893 net.cpp:420] drop7 <- fc7
I0901 13:40:06.846166 21893 net.cpp:367] drop7 -> fc7 (in-place)
I0901 13:40:06.846169 21893 net.cpp:120] Setting up drop7
I0901 13:40:06.846174 21893 net.cpp:127] Top shape: 1 4096 (4096)
I0901 13:40:06.846175 21893 layer_factory.hpp:74] Creating layer fc7_drop7_0_split
I0901 13:40:06.846181 21893 net.cpp:90] Creating Layer fc7_drop7_0_split
I0901 13:40:06.846182 21893 net.cpp:420] fc7_drop7_0_split <- fc7
I0901 13:40:06.846189 21893 net.cpp:378] fc7_drop7_0_split -> fc7_drop7_0_split_0
I0901 13:40:06.846196 21893 net.cpp:378] fc7_drop7_0_split -> fc7_drop7_0_split_1
I0901 13:40:06.846200 21893 net.cpp:120] Setting up fc7_drop7_0_split
I0901 13:40:06.846205 21893 net.cpp:127] Top shape: 1 4096 (4096)
I0901 13:40:06.846210 21893 net.cpp:127] Top shape: 1 4096 (4096)
I0901 13:40:06.846211 21893 layer_factory.hpp:74] Creating layer cls_score
I0901 13:40:06.846220 21893 net.cpp:90] Creating Layer cls_score
I0901 13:40:06.846221 21893 net.cpp:420] cls_score <- fc7_drop7_0_split_0
I0901 13:40:06.846227 21893 net.cpp:378] cls_score -> cls_score
I0901 13:40:06.846232 21893 net.cpp:120] Setting up cls_score
I0901 13:40:06.846624 21893 net.cpp:127] Top shape: 1 11 (11)
I0901 13:40:06.846629 21893 layer_factory.hpp:74] Creating layer cls_score_cls_score_0_split
I0901 13:40:06.846637 21893 net.cpp:90] Creating Layer cls_score_cls_score_0_split
I0901 13:40:06.846637 21893 net.cpp:420] cls_score_cls_score_0_split <- cls_score
I0901 13:40:06.846643 21893 net.cpp:378] cls_score_cls_score_0_split -> cls_score_cls_score_0_split_0
I0901 13:40:06.846652 21893 net.cpp:378] cls_score_cls_score_0_split -> cls_score_cls_score_0_split_1
I0901 13:40:06.846655 21893 net.cpp:120] Setting up cls_score_cls_score_0_split
I0901 13:40:06.846660 21893 net.cpp:127] Top shape: 1 11 (11)
I0901 13:40:06.846662 21893 net.cpp:127] Top shape: 1 11 (11)
I0901 13:40:06.846663 21893 layer_factory.hpp:74] Creating layer bbox_pred
I0901 13:40:06.846670 21893 net.cpp:90] Creating Layer bbox_pred
I0901 13:40:06.846673 21893 net.cpp:420] bbox_pred <- fc7_drop7_0_split_1
I0901 13:40:06.846678 21893 net.cpp:378] bbox_pred -> bbox_pred
I0901 13:40:06.846683 21893 net.cpp:120] Setting up bbox_pred
I0901 13:40:06.848129 21893 net.cpp:127] Top shape: 1 44 (44)
I0901 13:40:06.848140 21893 layer_factory.hpp:74] Creating layer loss
I0901 13:40:06.848147 21893 net.cpp:90] Creating Layer loss
I0901 13:40:06.848150 21893 net.cpp:420] loss <- cls_score_cls_score_0_split_0
I0901 13:40:06.848151 21893 net.cpp:420] loss <- labels_input_2_split_0
I0901 13:40:06.848157 21893 net.cpp:378] loss -> loss_cls
I0901 13:40:06.848161 21893 net.cpp:120] Setting up loss
…
