…
I0901 11:47:12.530261 21893 solver.cpp:70] Creating training net from net file: ./models/fast_rcnn_prototxts/ZF/train_val.prototxt
I0901 11:47:12.530637 21893 net.cpp:42] Initializing net from parameters: 
name: "Zeiler_conv5"
input: "data"
input: "rois"
input: "labels"
input: "bbox_targets"
input: "bbox_loss_weights"
input_dim: 1
input_dim: 3
input_dim: 224
input_dim: 224
input_dim: 1
input_dim: 5
input_dim: 1
input_dim: 1
input_dim: 1
input_dim: 1
input_dim: 1
input_dim: 1
input_dim: 1
input_dim: 44
input_dim: 1
input_dim: 1
input_dim: 1
input_dim: 44
input_dim: 1
input_dim: 1
state {
  phase: TRAIN
}
layer {
  name: "conv1"
  type: "Convolution"
  bottom: "data"
  top: "conv1"
  param {
    lr_mult: 1
  }
  param {
    lr_mult: 2
  }
  convolution_param {
    num_output: 96
    pad: 3
    kernel_size: 7
    stride: 2
    weight_filler {
      type: "gaussian"
      std: 0.01
    }
    bias_filler {
      type: "constant"
      value: 0
    }
  }
}
layer {
  name: "relu1"
  type: "ReLU"
  bottom: "conv1"
  top: "conv1"
}
layer {
  name: "norm1"
  type: "LRN"
  bottom: "conv1"
  top: "norm1"
  lrn_param {
    local_size: 3
    alpha: 5e-05
    beta: 0.75
    norm_region: WITHIN_CHANNEL
  }
}
layer {
  name: "pool1"
  type: "Pooling"
  bottom: "norm1"
  top: "pool1"
  pooling_param {
    pool: MAX
    kernel_size: 3
    stride: 2
    pad: 1
  }
}
layer {
  name: "conv2"
  type: "Convolution"
  bottom: "pool1"
  top: "conv2"
  param {
    lr_mult: 1
  }
  param {
    lr_mult: 2
  }
  convolution_param {
    num_output: 256
    pad: 2
    kernel_size: 5
    stride: 2
    weight_filler {
      type: "gaussian"
      std: 0.01
    }
    bias_filler {
      type: "constant"
      value: 1
    }
  }
}
layer {
  name: "relu2"
  type: "ReLU"
  bottom: "conv2"
  top: "conv2"
}
layer {
  name: "norm2"
  type: "LRN"
  bottom: "conv2"
  top: "norm2"
  lrn_param {
    local_size: 3
    alpha: 5e-05
    beta: 0.75
    norm_region: WITHIN_CHANNEL
  }
}
layer {
  name: "pool2"
  type: "Pooling"
  bottom: "norm2"
  top: "pool2"
  pooling_param {
    pool: MAX
    kernel_size: 3
    stride: 2
    pad: 1
  }
}
layer {
  name: "conv3"
  type: "Convolution"
  bottom: "pool2"
  top: "conv3"
  param {
    lr_mult: 1
  }
  param {
    lr_mult: 2
  }
  convolution_param {
    num_output: 384
    pad: 1
    kernel_size: 3
    stride: 1
    weight_filler {
      type: "gaussian"
      std: 0.01
    }
    bias_filler {
      type: "constant"
      value: 0
    }
  }
}
layer {
  name: "relu3"
  type: "ReLU"
  bottom: "conv3"
  top: "conv3"
}
layer {
  name: "conv4"
  type: "Convolution"
  bottom: "conv3"
  top: "conv4"
  param {
    lr_mult: 1
  }
  param {
    lr_mult: 2
  }
  convolution_param {
    num_output: 384
    pad: 1
    kernel_size: 3
    stride: 1
    weight_filler {
      type: "gaussian"
      std: 0.01
    }
    bias_filler {
      type: "constant"
      value: 1
    }
  }
}
layer {
  name: "relu4"
  type: "ReLU"
  bottom: "conv4"
  top: "conv4"
}
layer {
  name: "conv5"
  type: "Convolution"
  bottom: "conv4"
  top: "conv5"
  param {
    lr_mult: 1
  }
  param {
    lr_mult: 2
  }
  convolution_param {
    num_output: 256
    pad: 1
    kernel_size: 3
    stride: 1
    weight_filler {
      type: "gaussian"
      std: 0.01
    }
    bias_filler {
      type: "constant"
      value: 1
    }
  }
}
layer {
  name: "relu5"
  type: "ReLU"
  bottom: "conv5"
  top: "conv5"
}
layer {
  name: "roi_pool5"
  type: "ROIPooling"
  bottom: "conv5"
  bottom: "rois"
  top: "pool5"
  roi_pooling_param {
    pooled_h: 6
    pooled_w: 6
    spatial_scale: 0.0625
  }
}
layer {
  name: "fc6"
  type: "InnerProduct"
  bottom: "pool5"
  top: "fc6"
  param {
    lr_mult: 1
  }
  param {
    lr_mult: 2
  }
  inner_product_param {
    num_output: 4096
  }
}
layer {
  name: "relu6"
  type: "ReLU"
  bottom: "fc6"
  top: "fc6"
}
layer {
  name: "drop6"
  type: "Dropout"
  bottom: "fc6"
  top: "fc6"
  dropout_param {
    dropout_ratio: 0.5
    scale_train: false
  }
}
layer {
  name: "fc7"
  type: "InnerProduct"
  bottom: "fc6"
  top: "fc7"
  param {
    lr_mult: 1
  }
  param {
    lr_mult: 2
  }
  inner_product_param {
    num_output: 4096
  }
}
layer {
  name: "relu7"
  type: "ReLU"
  bottom: "fc7"
  top: "fc7"
}
layer {
  name: "drop7"
  type: "Dropout"
  bottom: "fc7"
  top: "fc7"
  dropout_param {
    dropout_ratio: 0.5
    scale_train: false
  }
}
layer {
  name: "cls_score"
  type: "InnerProduct"
  bottom: "fc7"
  top: "cls_score"
  param {
    lr_mult: 1
  }
  param {
    lr_mult: 2
  }
  inner_product_param {
    num_output: 11
    weight_filler {
      type: "gaussian"
      std: 0.01
    }
    bias_filler {
      type: "constant"
      value: 0
    }
  }
}
layer {
  name: "bbox_pred"
  type: "InnerProduct"
  bottom: "fc7"
  top: "bbox_pred"
  param {
    lr_mult: 1
  }
  param {
    lr_mult: 2
  }
  inner_product_param {
    num_output: 44
    weight_filler {
      type: "gaussian"
      std: 0.001
    }
    bias_filler {
      type: "constant"
      value: 0
    }
  }
}
layer {
  name: "loss"
  type: "SoftmaxWithLoss"
  bottom: "cls_score"
  bottom: "labels"
  top: "loss_cls"
  loss_weight: 1
}
layer {
  name: "accuarcy"
  type: "Accuracy"
  bottom: "cls_score"
  bottom: "labels"
  top: "accuarcy"
}
layer {
  name: "loss_bbox"
  type: "SmoothL1Loss"
  bottom: "bbox_pred"
  bottom: "bbox_targets"
  bottom: "bbox_loss_weights"
  top: "loss_bbox"
  loss_weight: 1
}
I0901 11:47:12.530791 21893 net.cpp:380] Input 0 -> data
I0901 11:47:12.530802 21893 net.cpp:380] Input 1 -> rois
I0901 11:47:12.530805 21893 net.cpp:380] Input 2 -> labels
I0901 11:47:12.530809 21893 net.cpp:380] Input 3 -> bbox_targets
I0901 11:47:12.530812 21893 net.cpp:380] Input 4 -> bbox_loss_weights
I0901 11:47:12.530829 21893 layer_factory.hpp:74] Creating layer labels_input_2_split
I0901 11:47:12.530838 21893 net.cpp:90] Creating Layer labels_input_2_split
I0901 11:47:12.530839 21893 net.cpp:420] labels_input_2_split <- labels
I0901 11:47:12.530844 21893 net.cpp:378] labels_input_2_split -> labels_input_2_split_0
I0901 11:47:12.530851 21893 net.cpp:378] labels_input_2_split -> labels_input_2_split_1
I0901 11:47:12.530854 21893 net.cpp:120] Setting up labels_input_2_split
I0901 11:47:12.530860 21893 net.cpp:127] Top shape: 1 1 1 1 (1)
I0901 11:47:12.530864 21893 net.cpp:127] Top shape: 1 1 1 1 (1)
I0901 11:47:12.530864 21893 layer_factory.hpp:74] Creating layer conv1
I0901 11:47:12.530871 21893 net.cpp:90] Creating Layer conv1
I0901 11:47:12.530874 21893 net.cpp:420] conv1 <- data
I0901 11:47:12.530877 21893 net.cpp:378] conv1 -> conv1
I0901 11:47:12.530881 21893 net.cpp:120] Setting up conv1
I0901 11:47:12.531018 21893 net.cpp:127] Top shape: 1 96 112 112 (1204224)
I0901 11:47:12.531024 21893 layer_factory.hpp:74] Creating layer relu1
I0901 11:47:12.531029 21893 net.cpp:90] Creating Layer relu1
I0901 11:47:12.531031 21893 net.cpp:420] relu1 <- conv1
I0901 11:47:12.531035 21893 net.cpp:367] relu1 -> conv1 (in-place)
I0901 11:47:12.531038 21893 net.cpp:120] Setting up relu1
I0901 11:47:12.531040 21893 net.cpp:127] Top shape: 1 96 112 112 (1204224)
I0901 11:47:12.531042 21893 layer_factory.hpp:74] Creating layer norm1
I0901 11:47:12.531047 21893 net.cpp:90] Creating Layer norm1
I0901 11:47:12.531049 21893 net.cpp:420] norm1 <- conv1
I0901 11:47:12.531051 21893 net.cpp:378] norm1 -> norm1
I0901 11:47:12.531055 21893 net.cpp:120] Setting up norm1
I0901 11:47:12.531075 21893 net.cpp:127] Top shape: 1 96 112 112 (1204224)
I0901 11:47:12.531075 21893 layer_factory.hpp:74] Creating layer pool1
I0901 11:47:12.531080 21893 net.cpp:90] Creating Layer pool1
I0901 11:47:12.531081 21893 net.cpp:420] pool1 <- norm1
I0901 11:47:12.531085 21893 net.cpp:378] pool1 -> pool1
I0901 11:47:12.531088 21893 net.cpp:120] Setting up pool1
I0901 11:47:12.531092 21893 net.cpp:127] Top shape: 1 96 57 57 (311904)
I0901 11:47:12.531095 21893 layer_factory.hpp:74] Creating layer conv2
I0901 11:47:12.531100 21893 net.cpp:90] Creating Layer conv2
I0901 11:47:12.531100 21893 net.cpp:420] conv2 <- pool1
I0901 11:47:12.531105 21893 net.cpp:378] conv2 -> conv2
I0901 11:47:12.531108 21893 net.cpp:120] Setting up conv2
I0901 11:47:12.536039 21893 net.cpp:127] Top shape: 1 256 29 29 (215296)
I0901 11:47:12.536056 21893 layer_factory.hpp:74] Creating layer relu2
I0901 11:47:12.536058 21893 net.cpp:90] Creating Layer relu2
I0901 11:47:12.536061 21893 net.cpp:420] relu2 <- conv2
I0901 11:47:12.536063 21893 net.cpp:367] relu2 -> conv2 (in-place)
I0901 11:47:12.536067 21893 net.cpp:120] Setting up relu2
I0901 11:47:12.536069 21893 net.cpp:127] Top shape: 1 256 29 29 (215296)
I0901 11:47:12.536070 21893 layer_factory.hpp:74] Creating layer norm2
I0901 11:47:12.536074 21893 net.cpp:90] Creating Layer norm2
I0901 11:47:12.536075 21893 net.cpp:420] norm2 <- conv2
I0901 11:47:12.536078 21893 net.cpp:378] norm2 -> norm2
I0901 11:47:12.536082 21893 net.cpp:120] Setting up norm2
I0901 11:47:12.536094 21893 net.cpp:127] Top shape: 1 256 29 29 (215296)
I0901 11:47:12.536097 21893 layer_factory.hpp:74] Creating layer pool2
I0901 11:47:12.536101 21893 net.cpp:90] Creating Layer pool2
I0901 11:47:12.536103 21893 net.cpp:420] pool2 <- norm2
I0901 11:47:12.536105 21893 net.cpp:378] pool2 -> pool2
I0901 11:47:12.536108 21893 net.cpp:120] Setting up pool2
I0901 11:47:12.536113 21893 net.cpp:127] Top shape: 1 256 15 15 (57600)
I0901 11:47:12.536114 21893 layer_factory.hpp:74] Creating layer conv3
I0901 11:47:12.536118 21893 net.cpp:90] Creating Layer conv3
I0901 11:47:12.536119 21893 net.cpp:420] conv3 <- pool2
I0901 11:47:12.536124 21893 net.cpp:378] conv3 -> conv3
I0901 11:47:12.536128 21893 net.cpp:120] Setting up conv3
I0901 11:47:12.543594 21893 net.cpp:127] Top shape: 1 384 15 15 (86400)
I0901 11:47:12.543601 21893 layer_factory.hpp:74] Creating layer relu3
I0901 11:47:12.543604 21893 net.cpp:90] Creating Layer relu3
I0901 11:47:12.543606 21893 net.cpp:420] relu3 <- conv3
I0901 11:47:12.543608 21893 net.cpp:367] relu3 -> conv3 (in-place)
I0901 11:47:12.543612 21893 net.cpp:120] Setting up relu3
I0901 11:47:12.543613 21893 net.cpp:127] Top shape: 1 384 15 15 (86400)
I0901 11:47:12.543615 21893 layer_factory.hpp:74] Creating layer conv4
I0901 11:47:12.543620 21893 net.cpp:90] Creating Layer conv4
I0901 11:47:12.543622 21893 net.cpp:420] conv4 <- conv3
I0901 11:47:12.543625 21893 net.cpp:378] conv4 -> conv4
I0901 11:47:12.543628 21893 net.cpp:120] Setting up conv4
I0901 11:47:12.554661 21893 net.cpp:127] Top shape: 1 384 15 15 (86400)
I0901 11:47:12.554664 21893 layer_factory.hpp:74] Creating layer relu4
I0901 11:47:12.554672 21893 net.cpp:90] Creating Layer relu4
I0901 11:47:12.554673 21893 net.cpp:420] relu4 <- conv4
I0901 11:47:12.554677 21893 net.cpp:367] relu4 -> conv4 (in-place)
I0901 11:47:12.554679 21893 net.cpp:120] Setting up relu4
I0901 11:47:12.554682 21893 net.cpp:127] Top shape: 1 384 15 15 (86400)
I0901 11:47:12.554683 21893 layer_factory.hpp:74] Creating layer conv5
I0901 11:47:12.554687 21893 net.cpp:90] Creating Layer conv5
I0901 11:47:12.554688 21893 net.cpp:420] conv5 <- conv4
I0901 11:47:12.554692 21893 net.cpp:378] conv5 -> conv5
I0901 11:47:12.554695 21893 net.cpp:120] Setting up conv5
I0901 11:47:12.561820 21893 net.cpp:127] Top shape: 1 256 15 15 (57600)
I0901 11:47:12.561825 21893 layer_factory.hpp:74] Creating layer relu5
I0901 11:47:12.561828 21893 net.cpp:90] Creating Layer relu5
I0901 11:47:12.561830 21893 net.cpp:420] relu5 <- conv5
I0901 11:47:12.561832 21893 net.cpp:367] relu5 -> conv5 (in-place)
I0901 11:47:12.561836 21893 net.cpp:120] Setting up relu5
I0901 11:47:12.561838 21893 net.cpp:127] Top shape: 1 256 15 15 (57600)
I0901 11:47:12.561839 21893 layer_factory.hpp:74] Creating layer roi_pool5
I0901 11:47:12.561843 21893 net.cpp:90] Creating Layer roi_pool5
I0901 11:47:12.561844 21893 net.cpp:420] roi_pool5 <- conv5
I0901 11:47:12.561847 21893 net.cpp:420] roi_pool5 <- rois
I0901 11:47:12.561851 21893 net.cpp:378] roi_pool5 -> pool5
I0901 11:47:12.561856 21893 net.cpp:120] Setting up roi_pool5
I0901 11:47:12.561858 21893 roi_pooling_layer.cpp:44] Spatial scale: 0.0625
I0901 11:47:12.561867 21893 net.cpp:127] Top shape: 1 256 6 6 (9216)
I0901 11:47:12.561868 21893 layer_factory.hpp:74] Creating layer fc6
I0901 11:47:12.561874 21893 net.cpp:90] Creating Layer fc6
I0901 11:47:12.561885 21893 net.cpp:420] fc6 <- pool5
I0901 11:47:12.561889 21893 net.cpp:378] fc6 -> fc6
I0901 11:47:12.561893 21893 net.cpp:120] Setting up fc6
I0901 11:47:12.606518 21893 net.cpp:127] Top shape: 1 4096 (4096)
I0901 11:47:12.606533 21893 layer_factory.hpp:74] Creating layer relu6
I0901 11:47:12.606539 21893 net.cpp:90] Creating Layer relu6
I0901 11:47:12.606544 21893 net.cpp:420] relu6 <- fc6
I0901 11:47:12.606550 21893 net.cpp:367] relu6 -> fc6 (in-place)
I0901 11:47:12.606557 21893 net.cpp:120] Setting up relu6
I0901 11:47:12.606560 21893 net.cpp:127] Top shape: 1 4096 (4096)
I0901 11:47:12.606561 21893 layer_factory.hpp:74] Creating layer drop6
I0901 11:47:12.606567 21893 net.cpp:90] Creating Layer drop6
I0901 11:47:12.606570 21893 net.cpp:420] drop6 <- fc6
I0901 11:47:12.606573 21893 net.cpp:367] drop6 -> fc6 (in-place)
I0901 11:47:12.606576 21893 net.cpp:120] Setting up drop6
I0901 11:47:12.606581 21893 net.cpp:127] Top shape: 1 4096 (4096)
I0901 11:47:12.606582 21893 layer_factory.hpp:74] Creating layer fc7
I0901 11:47:12.606588 21893 net.cpp:90] Creating Layer fc7
I0901 11:47:12.606590 21893 net.cpp:420] fc7 <- fc6
I0901 11:47:12.606595 21893 net.cpp:378] fc7 -> fc7
I0901 11:47:12.606598 21893 net.cpp:120] Setting up fc7
I0901 11:47:12.626533 21893 net.cpp:127] Top shape: 1 4096 (4096)
I0901 11:47:12.626546 21893 layer_factory.hpp:74] Creating layer relu7
I0901 11:47:12.626554 21893 net.cpp:90] Creating Layer relu7
I0901 11:47:12.626556 21893 net.cpp:420] relu7 <- fc7
I0901 11:47:12.626564 21893 net.cpp:367] relu7 -> fc7 (in-place)
I0901 11:47:12.626569 21893 net.cpp:120] Setting up relu7
I0901 11:47:12.626572 21893 net.cpp:127] Top shape: 1 4096 (4096)
I0901 11:47:12.626574 21893 layer_factory.hpp:74] Creating layer drop7
I0901 11:47:12.626579 21893 net.cpp:90] Creating Layer drop7
I0901 11:47:12.626581 21893 net.cpp:420] drop7 <- fc7
I0901 11:47:12.626585 21893 net.cpp:367] drop7 -> fc7 (in-place)
I0901 11:47:12.626587 21893 net.cpp:120] Setting up drop7
I0901 11:47:12.626590 21893 net.cpp:127] Top shape: 1 4096 (4096)
I0901 11:47:12.626592 21893 layer_factory.hpp:74] Creating layer fc7_drop7_0_split
I0901 11:47:12.626600 21893 net.cpp:90] Creating Layer fc7_drop7_0_split
I0901 11:47:12.626601 21893 net.cpp:420] fc7_drop7_0_split <- fc7
I0901 11:47:12.626606 21893 net.cpp:378] fc7_drop7_0_split -> fc7_drop7_0_split_0
I0901 11:47:12.626615 21893 net.cpp:378] fc7_drop7_0_split -> fc7_drop7_0_split_1
I0901 11:47:12.626617 21893 net.cpp:120] Setting up fc7_drop7_0_split
I0901 11:47:12.626621 21893 net.cpp:127] Top shape: 1 4096 (4096)
I0901 11:47:12.626623 21893 net.cpp:127] Top shape: 1 4096 (4096)
I0901 11:47:12.626626 21893 layer_factory.hpp:74] Creating layer cls_score
I0901 11:47:12.626632 21893 net.cpp:90] Creating Layer cls_score
I0901 11:47:12.626633 21893 net.cpp:420] cls_score <- fc7_drop7_0_split_0
I0901 11:47:12.626639 21893 net.cpp:378] cls_score -> cls_score
I0901 11:47:12.626644 21893 net.cpp:120] Setting up cls_score
I0901 11:47:12.627014 21893 net.cpp:127] Top shape: 1 11 (11)
I0901 11:47:12.627019 21893 layer_factory.hpp:74] Creating layer cls_score_cls_score_0_split
I0901 11:47:12.627025 21893 net.cpp:90] Creating Layer cls_score_cls_score_0_split
I0901 11:47:12.627027 21893 net.cpp:420] cls_score_cls_score_0_split <- cls_score
I0901 11:47:12.627032 21893 net.cpp:378] cls_score_cls_score_0_split -> cls_score_cls_score_0_split_0
I0901 11:47:12.627040 21893 net.cpp:378] cls_score_cls_score_0_split -> cls_score_cls_score_0_split_1
I0901 11:47:12.627044 21893 net.cpp:120] Setting up cls_score_cls_score_0_split
I0901 11:47:12.627048 21893 net.cpp:127] Top shape: 1 11 (11)
I0901 11:47:12.627050 21893 net.cpp:127] Top shape: 1 11 (11)
I0901 11:47:12.627053 21893 layer_factory.hpp:74] Creating layer bbox_pred
I0901 11:47:12.627059 21893 net.cpp:90] Creating Layer bbox_pred
I0901 11:47:12.627060 21893 net.cpp:420] bbox_pred <- fc7_drop7_0_split_1
I0901 11:47:12.627066 21893 net.cpp:378] bbox_pred -> bbox_pred
I0901 11:47:12.627070 21893 net.cpp:120] Setting up bbox_pred
I0901 11:47:12.628543 21893 net.cpp:127] Top shape: 1 44 (44)
I0901 11:47:12.628556 21893 layer_factory.hpp:74] Creating layer loss
I0901 11:47:12.628563 21893 net.cpp:90] Creating Layer loss
I0901 11:47:12.628566 21893 net.cpp:420] loss <- cls_score_cls_score_0_split_0
I0901 11:47:12.628568 21893 net.cpp:420] loss <- labels_input_2_split_0
I0901 11:47:12.628573 21893 net.cpp:378] loss -> loss_cls
I0901 11:47:12.628578 21893 net.cpp:120] Setting up loss
…
