Log file created at: 2017/09/01 15:32:11
Running on machine: iiticubsrv017
Log line format: [IWEF]mmdd hh:mm:ss.uuuuuu threadid file:line] msg
I0901 15:32:11.878434 56256 net.cpp:42] Initializing net from parameters: 
name: "Zeiler_conv5"
input: "data"
input_dim: 1
input_dim: 3
input_dim: 224
input_dim: 224
state {
  phase: TEST
}
layer {
  name: "conv1"
  type: "Convolution"
  bottom: "data"
  top: "conv1"
  param {
    lr_mult: 0
  }
  param {
    lr_mult: 0
  }
  convolution_param {
    num_output: 96
    pad: 3
    kernel_size: 7
    stride: 2
    weight_filler {
      type: "gaussian"
      std: 0.01
    }
    bias_filler {
      type: "constant"
      value: 0
    }
  }
}
layer {
  name: "relu1"
  type: "ReLU"
  bottom: "conv1"
  top: "conv1"
}
layer {
  name: "norm1"
  type: "LRN"
  bottom: "conv1"
  top: "norm1"
  lrn_param {
    local_size: 3
    alpha: 5e-05
    beta: 0.75
    norm_region: WITHIN_CHANNEL
  }
}
layer {
  name: "pool1"
  type: "Pooling"
  bottom: "norm1"
  top: "pool1"
  pooling_param {
    pool: MAX
    kernel_size: 3
    stride: 2
    pad: 1
  }
}
layer {
  name: "conv2"
  type: "Convolution"
  bottom: "pool1"
  top: "conv2"
  param {
    lr_mult: 0
  }
  param {
    lr_mult: 0
  }
  convolution_param {
    num_output: 256
    pad: 2
    kernel_size: 5
    stride: 2
    weight_filler {
      type: "gaussian"
      std: 0.01
    }
    bias_filler {
      type: "constant"
      value: 1
    }
  }
}
layer {
  name: "relu2"
  type: "ReLU"
  bottom: "conv2"
  top: "conv2"
}
layer {
  name: "norm2"
  type: "LRN"
  bottom: "conv2"
  top: "norm2"
  lrn_param {
    local_size: 3
    alpha: 5e-05
    beta: 0.75
    norm_region: WITHIN_CHANNEL
  }
}
layer {
  name: "pool2"
  type: "Pooling"
  bottom: "norm2"
  top: "pool2"
  pooling_param {
    pool: MAX
    kernel_size: 3
    stride: 2
    pad: 1
  }
}
layer {
  name: "conv3"
  type: "Convolution"
  bottom: "pool2"
  top: "conv3"
  param {
    lr_mult: 0
  }
  param {
    lr_mult: 0
  }
  convolution_param {
    num_output: 384
    pad: 1
    kernel_size: 3
    stride: 1
    weight_filler {
      type: "gaussian"
      std: 0.01
    }
    bias_filler {
      type: "constant"
      value: 0
    }
  }
}
layer {
  name: "relu3"
  type: "ReLU"
  bottom: "conv3"
  top: "conv3"
}
layer {
  name: "conv4"
  type: "Convolution"
  bottom: "conv3"
  top: "conv4"
  param {
    lr_mult: 0
  }
  param {
    lr_mult: 0
  }
  convolution_param {
    num_output: 384
    pad: 1
    kernel_size: 3
    stride: 1
    weight_filler {
      type: "gaussian"
      std: 0.01
    }
    bias_filler {
      type: "constant"
      value: 1
    }
  }
}
layer {
  name: "relu4"
  type: "ReLU"
  bottom: "conv4"
  top: "conv4"
}
layer {
  name: "conv5"
  type: "Convolution"
  bottom: "conv4"
  top: "conv5"
  param {
    lr_mult: 0
  }
  param {
    lr_mult: 0
  }
  convolution_param {
    num_output: 256
    pad: 1
    kernel_size: 3
    stride: 1
    weight_filler {
      type: "gaussian"
      std: 0.01
    }
    bias_filler {
      type: "constant"
      value: 1
    }
  }
}
layer {
  name: "relu5"
  type: "ReLU"
  bottom: "conv5"
  top: "conv5"
}
layer {
  name: "conv_proposal1"
  type: "Convolution"
  bottom: "conv5"
  top: "conv_proposal1"
  param {
    lr_mult: 1
  }
  param {
    lr_mult: 2
  }
  convolution_param {
    num_output: 256
    pad: 1
    kernel_size: 3
    stride: 1
    weight_filler {
      type: "gaussian"
      std: 0.01
    }
    bias_filler {
      type: "constant"
      value: 0
    }
  }
}
layer {
  name: "relu_proposal1"
  type: "ReLU"
  bottom: "conv_proposal1"
  top: "conv_proposal1"
}
layer {
  name: "proposal_cls_score"
  type: "Convolution"
  bottom: "conv_proposal1"
  top: "proposal_cls_score"
  param {
    lr_mult: 1
  }
  param {
    lr_mult: 2
  }
  convolution_param {
    num_output: 18
    pad: 0
    kernel_size: 1
    stride: 1
    weight_filler {
      type: "gaussian"
      std: 0.01
    }
    bias_filler {
      type: "constant"
      value: 0
    }
  }
}
layer {
  name: "proposal_bbox_pred"
  type: "Convolution"
  bottom: "conv_proposal1"
  top: "proposal_bbox_pred"
  param {
    lr_mult: 1
  }
  param {
    lr_mult: 2
  }
  convolution_param {
    num_output: 36
    pad: 0
    kernel_size: 1
    stride: 1
    weight_filler {
      type: "gaussian"
      std: 0.01
    }
    bias_filler {
      type: "constant"
      value: 0
    }
  }
}
layer {
  name: "proposal_cls_score_reshape"
  type: "Reshape"
  bottom: "proposal_cls_score"
  top: "proposal_cls_score_reshape"
  reshape_param {
    shape {
      dim: 0
      dim: 2
      dim: -1
      dim: 0
    }
  }
}
layer {
  name: "proposal_cls_prob"
  type: "Softmax"
  bottom: "proposal_cls_score_reshape"
  top: "proposal_cls_prob"
}
I0901 15:32:11.879145 56256 net.cpp:380] Input 0 -> data
I0901 15:32:11.879191 56256 layer_factory.hpp:74] Creating layer conv1
I0901 15:32:11.879207 56256 net.cpp:90] Creating Layer conv1
I0901 15:32:11.879211 56256 net.cpp:420] conv1 <- data
I0901 15:32:11.879226 56256 net.cpp:378] conv1 -> conv1
I0901 15:32:11.879241 56256 net.cpp:120] Setting up conv1
I0901 15:32:11.879616 56256 net.cpp:127] Top shape: 1 96 112 112 (1204224)
I0901 15:32:11.879637 56256 layer_factory.hpp:74] Creating layer relu1
I0901 15:32:11.879652 56256 net.cpp:90] Creating Layer relu1
I0901 15:32:11.879655 56256 net.cpp:420] relu1 <- conv1
I0901 15:32:11.879665 56256 net.cpp:367] relu1 -> conv1 (in-place)
I0901 15:32:11.879673 56256 net.cpp:120] Setting up relu1
I0901 15:32:11.879683 56256 net.cpp:127] Top shape: 1 96 112 112 (1204224)
I0901 15:32:11.879686 56256 layer_factory.hpp:74] Creating layer norm1
I0901 15:32:11.879706 56256 net.cpp:90] Creating Layer norm1
I0901 15:32:11.879709 56256 net.cpp:420] norm1 <- conv1
I0901 15:32:11.879726 56256 net.cpp:378] norm1 -> norm1
I0901 15:32:11.879735 56256 net.cpp:120] Setting up norm1
I0901 15:32:11.879779 56256 net.cpp:127] Top shape: 1 96 112 112 (1204224)
I0901 15:32:11.879783 56256 layer_factory.hpp:74] Creating layer pool1
I0901 15:32:11.879796 56256 net.cpp:90] Creating Layer pool1
I0901 15:32:11.879801 56256 net.cpp:420] pool1 <- norm1
I0901 15:32:11.879807 56256 net.cpp:378] pool1 -> pool1
I0901 15:32:11.879814 56256 net.cpp:120] Setting up pool1
I0901 15:32:11.879825 56256 net.cpp:127] Top shape: 1 96 57 57 (311904)
I0901 15:32:11.879829 56256 layer_factory.hpp:74] Creating layer conv2
I0901 15:32:11.879844 56256 net.cpp:90] Creating Layer conv2
I0901 15:32:11.879848 56256 net.cpp:420] conv2 <- pool1
I0901 15:32:11.879860 56256 net.cpp:378] conv2 -> conv2
I0901 15:32:11.879870 56256 net.cpp:120] Setting up conv2
I0901 15:32:11.894206 56256 net.cpp:127] Top shape: 1 256 29 29 (215296)
I0901 15:32:11.894235 56256 layer_factory.hpp:74] Creating layer relu2
I0901 15:32:11.894250 56256 net.cpp:90] Creating Layer relu2
I0901 15:32:11.894256 56256 net.cpp:420] relu2 <- conv2
I0901 15:32:11.894268 56256 net.cpp:367] relu2 -> conv2 (in-place)
I0901 15:32:11.894278 56256 net.cpp:120] Setting up relu2
I0901 15:32:11.894287 56256 net.cpp:127] Top shape: 1 256 29 29 (215296)
I0901 15:32:11.894291 56256 layer_factory.hpp:74] Creating layer norm2
I0901 15:32:11.894301 56256 net.cpp:90] Creating Layer norm2
I0901 15:32:11.894305 56256 net.cpp:420] norm2 <- conv2
I0901 15:32:11.894315 56256 net.cpp:378] norm2 -> norm2
I0901 15:32:11.894323 56256 net.cpp:120] Setting up norm2
I0901 15:32:11.894366 56256 net.cpp:127] Top shape: 1 256 29 29 (215296)
I0901 15:32:11.894369 56256 layer_factory.hpp:74] Creating layer pool2
I0901 15:32:11.894378 56256 net.cpp:90] Creating Layer pool2
I0901 15:32:11.894381 56256 net.cpp:420] pool2 <- norm2
I0901 15:32:11.894389 56256 net.cpp:378] pool2 -> pool2
I0901 15:32:11.894397 56256 net.cpp:120] Setting up pool2
I0901 15:32:11.894407 56256 net.cpp:127] Top shape: 1 256 15 15 (57600)
I0901 15:32:11.894412 56256 layer_factory.hpp:74] Creating layer conv3
I0901 15:32:11.894426 56256 net.cpp:90] Creating Layer conv3
I0901 15:32:11.894430 56256 net.cpp:420] conv3 <- pool2
I0901 15:32:11.894439 56256 net.cpp:378] conv3 -> conv3
I0901 15:32:11.894448 56256 net.cpp:120] Setting up conv3
I0901 15:32:11.914427 56256 net.cpp:127] Top shape: 1 384 15 15 (86400)
I0901 15:32:11.914439 56256 layer_factory.hpp:74] Creating layer relu3
I0901 15:32:11.914448 56256 net.cpp:90] Creating Layer relu3
I0901 15:32:11.914451 56256 net.cpp:420] relu3 <- conv3
I0901 15:32:11.914458 56256 net.cpp:367] relu3 -> conv3 (in-place)
I0901 15:32:11.914465 56256 net.cpp:120] Setting up relu3
I0901 15:32:11.914471 56256 net.cpp:127] Top shape: 1 384 15 15 (86400)
I0901 15:32:11.914475 56256 layer_factory.hpp:74] Creating layer conv4
I0901 15:32:11.914485 56256 net.cpp:90] Creating Layer conv4
I0901 15:32:11.914489 56256 net.cpp:420] conv4 <- conv3
I0901 15:32:11.914497 56256 net.cpp:378] conv4 -> conv4
I0901 15:32:11.914507 56256 net.cpp:120] Setting up conv4
I0901 15:32:11.940958 56256 net.cpp:127] Top shape: 1 384 15 15 (86400)
I0901 15:32:11.940978 56256 layer_factory.hpp:74] Creating layer relu4
I0901 15:32:11.940989 56256 net.cpp:90] Creating Layer relu4
I0901 15:32:11.940994 56256 net.cpp:420] relu4 <- conv4
I0901 15:32:11.941005 56256 net.cpp:367] relu4 -> conv4 (in-place)
I0901 15:32:11.941015 56256 net.cpp:120] Setting up relu4
I0901 15:32:11.941020 56256 net.cpp:127] Top shape: 1 384 15 15 (86400)
I0901 15:32:11.941025 56256 layer_factory.hpp:74] Creating layer conv5
I0901 15:32:11.941037 56256 net.cpp:90] Creating Layer conv5
I0901 15:32:11.941040 56256 net.cpp:420] conv5 <- conv4
I0901 15:32:11.941049 56256 net.cpp:378] conv5 -> conv5
I0901 15:32:11.941058 56256 net.cpp:120] Setting up conv5
I0901 15:32:11.956797 56256 net.cpp:127] Top shape: 1 256 15 15 (57600)
I0901 15:32:11.956815 56256 layer_factory.hpp:74] Creating layer relu5
I0901 15:32:11.956821 56256 net.cpp:90] Creating Layer relu5
I0901 15:32:11.956825 56256 net.cpp:420] relu5 <- conv5
I0901 15:32:11.956831 56256 net.cpp:367] relu5 -> conv5 (in-place)
I0901 15:32:11.956837 56256 net.cpp:120] Setting up relu5
I0901 15:32:11.956842 56256 net.cpp:127] Top shape: 1 256 15 15 (57600)
I0901 15:32:11.956845 56256 layer_factory.hpp:74] Creating layer conv_proposal1
I0901 15:32:11.956854 56256 net.cpp:90] Creating Layer conv_proposal1
I0901 15:32:11.956857 56256 net.cpp:420] conv_proposal1 <- conv5
I0901 15:32:11.956864 56256 net.cpp:378] conv_proposal1 -> conv_proposal1
I0901 15:32:11.956871 56256 net.cpp:120] Setting up conv_proposal1
I0901 15:32:11.966675 56256 net.cpp:127] Top shape: 1 256 15 15 (57600)
I0901 15:32:11.966687 56256 layer_factory.hpp:74] Creating layer relu_proposal1
I0901 15:32:11.966694 56256 net.cpp:90] Creating Layer relu_proposal1
I0901 15:32:11.966698 56256 net.cpp:420] relu_proposal1 <- conv_proposal1
I0901 15:32:11.966706 56256 net.cpp:367] relu_proposal1 -> conv_proposal1 (in-place)
I0901 15:32:11.966711 56256 net.cpp:120] Setting up relu_proposal1
I0901 15:32:11.966716 56256 net.cpp:127] Top shape: 1 256 15 15 (57600)
I0901 15:32:11.966718 56256 layer_factory.hpp:74] Creating layer conv_proposal1_relu_proposal1_0_split
I0901 15:32:11.966733 56256 net.cpp:90] Creating Layer conv_proposal1_relu_proposal1_0_split
I0901 15:32:11.966737 56256 net.cpp:420] conv_proposal1_relu_proposal1_0_split <- conv_proposal1
I0901 15:32:11.966743 56256 net.cpp:378] conv_proposal1_relu_proposal1_0_split -> conv_proposal1_relu_proposal1_0_split_0
I0901 15:32:11.966753 56256 net.cpp:378] conv_proposal1_relu_proposal1_0_split -> conv_proposal1_relu_proposal1_0_split_1
I0901 15:32:11.966759 56256 net.cpp:120] Setting up conv_proposal1_relu_proposal1_0_split
I0901 15:32:11.966768 56256 net.cpp:127] Top shape: 1 256 15 15 (57600)
I0901 15:32:11.966773 56256 net.cpp:127] Top shape: 1 256 15 15 (57600)
I0901 15:32:11.966775 56256 layer_factory.hpp:74] Creating layer proposal_cls_score
I0901 15:32:11.966785 56256 net.cpp:90] Creating Layer proposal_cls_score
I0901 15:32:11.966789 56256 net.cpp:420] proposal_cls_score <- conv_proposal1_relu_proposal1_0_split_0
I0901 15:32:11.966799 56256 net.cpp:378] proposal_cls_score -> proposal_cls_score
I0901 15:32:11.966807 56256 net.cpp:120] Setting up proposal_cls_score
I0901 15:32:11.966902 56256 net.cpp:127] Top shape: 1 18 15 15 (4050)
I0901 15:32:11.966908 56256 layer_factory.hpp:74] Creating layer proposal_bbox_pred
I0901 15:32:11.966918 56256 net.cpp:90] Creating Layer proposal_bbox_pred
I0901 15:32:11.966922 56256 net.cpp:420] proposal_bbox_pred <- conv_proposal1_relu_proposal1_0_split_1
I0901 15:32:11.966930 56256 net.cpp:378] proposal_bbox_pred -> proposal_bbox_pred
I0901 15:32:11.966938 56256 net.cpp:120] Setting up proposal_bbox_pred
I0901 15:32:11.967110 56256 net.cpp:127] Top shape: 1 36 15 15 (8100)
I0901 15:32:11.967118 56256 layer_factory.hpp:74] Creating layer proposal_cls_score_reshape
I0901 15:32:11.967128 56256 net.cpp:90] Creating Layer proposal_cls_score_reshape
I0901 15:32:11.967131 56256 net.cpp:420] proposal_cls_score_reshape <- proposal_cls_score
I0901 15:32:11.967169 56256 net.cpp:378] proposal_cls_score_reshape -> proposal_cls_score_reshape
I0901 15:32:11.967176 56256 net.cpp:120] Setting up proposal_cls_score_reshape
I0901 15:32:11.967186 56256 net.cpp:127] Top shape: 1 2 135 15 (4050)
I0901 15:32:11.967190 56256 layer_factory.hpp:74] Creating layer proposal_cls_prob
I0901 15:32:11.967200 56256 net.cpp:90] Creating Layer proposal_cls_prob
I0901 15:32:11.967203 56256 net.cpp:420] proposal_cls_prob <- proposal_cls_score_reshape
I0901 15:32:11.967211 56256 net.cpp:378] proposal_cls_prob -> proposal_cls_prob
I0901 15:32:11.967224 56256 net.cpp:120] Setting up proposal_cls_prob
I0901 15:32:11.967234 56256 net.cpp:127] Top shape: 1 2 135 15 (4050)
I0901 15:32:11.967237 56256 net.cpp:194] proposal_cls_prob does not need backward computation.
I0901 15:32:11.967242 56256 net.cpp:194] proposal_cls_score_reshape does not need backward computation.
I0901 15:32:11.967244 56256 net.cpp:194] proposal_bbox_pred does not need backward computation.
I0901 15:32:11.967247 56256 net.cpp:194] proposal_cls_score does not need backward computation.
…
