Log file created at: 2017/09/01 14:21:30
Running on machine: iiticubsrv017
Log line format: [IWEF]mmdd hh:mm:ss.uuuuuu threadid file:line] msg
I0901 14:21:30.960726 21893 net.cpp:42] Initializing net from parameters: 
name: "Zeiler_conv5"
input: "data"
input_dim: 1
input_dim: 3
input_dim: 224
input_dim: 224
state {
  phase: TEST
}
layer {
  name: "conv1"
  type: "Convolution"
  bottom: "data"
  top: "conv1"
  param {
    lr_mult: 0
  }
  param {
    lr_mult: 0
  }
  convolution_param {
    num_output: 96
    pad: 3
    kernel_size: 7
    stride: 2
    weight_filler {
      type: "gaussian"
      std: 0.01
    }
    bias_filler {
      type: "constant"
      value: 0
    }
  }
}
layer {
  name: "relu1"
  type: "ReLU"
  bottom: "conv1"
  top: "conv1"
}
layer {
  name: "norm1"
  type: "LRN"
  bottom: "conv1"
  top: "norm1"
  lrn_param {
    local_size: 3
    alpha: 5e-05
    beta: 0.75
    norm_region: WITHIN_CHANNEL
  }
}
layer {
  name: "pool1"
  type: "Pooling"
  bottom: "norm1"
  top: "pool1"
  pooling_param {
    pool: MAX
    kernel_size: 3
    stride: 2
    pad: 1
  }
}
layer {
  name: "conv2"
  type: "Convolution"
  bottom: "pool1"
  top: "conv2"
  param {
    lr_mult: 0
  }
  param {
    lr_mult: 0
  }
  convolution_param {
    num_output: 256
    pad: 2
    kernel_size: 5
    stride: 2
    weight_filler {
      type: "gaussian"
      std: 0.01
    }
    bias_filler {
      type: "constant"
      value: 1
    }
  }
}
layer {
  name: "relu2"
  type: "ReLU"
  bottom: "conv2"
  top: "conv2"
}
layer {
  name: "norm2"
  type: "LRN"
  bottom: "conv2"
  top: "norm2"
  lrn_param {
    local_size: 3
    alpha: 5e-05
    beta: 0.75
    norm_region: WITHIN_CHANNEL
  }
}
layer {
  name: "pool2"
  type: "Pooling"
  bottom: "norm2"
  top: "pool2"
  pooling_param {
    pool: MAX
    kernel_size: 3
    stride: 2
    pad: 1
  }
}
layer {
  name: "conv3"
  type: "Convolution"
  bottom: "pool2"
  top: "conv3"
  param {
    lr_mult: 0
  }
  param {
    lr_mult: 0
  }
  convolution_param {
    num_output: 384
    pad: 1
    kernel_size: 3
    stride: 1
    weight_filler {
      type: "gaussian"
      std: 0.01
    }
    bias_filler {
      type: "constant"
      value: 0
    }
  }
}
layer {
  name: "relu3"
  type: "ReLU"
  bottom: "conv3"
  top: "conv3"
}
layer {
  name: "conv4"
  type: "Convolution"
  bottom: "conv3"
  top: "conv4"
  param {
    lr_mult: 0
  }
  param {
    lr_mult: 0
  }
  convolution_param {
    num_output: 384
    pad: 1
    kernel_size: 3
    stride: 1
    weight_filler {
      type: "gaussian"
      std: 0.01
    }
    bias_filler {
      type: "constant"
      value: 1
    }
  }
}
layer {
  name: "relu4"
  type: "ReLU"
  bottom: "conv4"
  top: "conv4"
}
layer {
  name: "conv5"
  type: "Convolution"
  bottom: "conv4"
  top: "conv5"
  param {
    lr_mult: 0
  }
  param {
    lr_mult: 0
  }
  convolution_param {
    num_output: 256
    pad: 1
    kernel_size: 3
    stride: 1
    weight_filler {
      type: "gaussian"
      std: 0.01
    }
    bias_filler {
      type: "constant"
      value: 1
    }
  }
}
layer {
  name: "relu5"
  type: "ReLU"
  bottom: "conv5"
  top: "conv5"
}
layer {
  name: "conv_proposal1"
  type: "Convolution"
  bottom: "conv5"
  top: "conv_proposal1"
  param {
    lr_mult: 1
  }
  param {
    lr_mult: 2
  }
  convolution_param {
    num_output: 256
    pad: 1
    kernel_size: 3
    stride: 1
    weight_filler {
      type: "gaussian"
      std: 0.01
    }
    bias_filler {
      type: "constant"
      value: 0
    }
  }
}
layer {
  name: "relu_proposal1"
  type: "ReLU"
  bottom: "conv_proposal1"
  top: "conv_proposal1"
}
layer {
  name: "proposal_cls_score"
  type: "Convolution"
  bottom: "conv_proposal1"
  top: "proposal_cls_score"
  param {
    lr_mult: 1
  }
  param {
    lr_mult: 2
  }
  convolution_param {
    num_output: 18
    pad: 0
    kernel_size: 1
    stride: 1
    weight_filler {
      type: "gaussian"
      std: 0.01
    }
    bias_filler {
      type: "constant"
      value: 0
    }
  }
}
layer {
  name: "proposal_bbox_pred"
  type: "Convolution"
  bottom: "conv_proposal1"
  top: "proposal_bbox_pred"
  param {
    lr_mult: 1
  }
  param {
    lr_mult: 2
  }
  convolution_param {
    num_output: 36
    pad: 0
    kernel_size: 1
    stride: 1
    weight_filler {
      type: "gaussian"
      std: 0.01
    }
    bias_filler {
      type: "constant"
      value: 0
    }
  }
}
layer {
  name: "proposal_cls_score_reshape"
  type: "Reshape"
  bottom: "proposal_cls_score"
  top: "proposal_cls_score_reshape"
  reshape_param {
    shape {
      dim: 0
      dim: 2
      dim: -1
      dim: 0
    }
  }
}
layer {
  name: "proposal_cls_prob"
  type: "Softmax"
  bottom: "proposal_cls_score_reshape"
  top: "proposal_cls_prob"
}
I0901 14:21:30.961196 21893 net.cpp:380] Input 0 -> data
I0901 14:21:30.961230 21893 layer_factory.hpp:74] Creating layer conv1
I0901 14:21:30.961251 21893 net.cpp:90] Creating Layer conv1
I0901 14:21:30.961254 21893 net.cpp:420] conv1 <- data
I0901 14:21:30.961262 21893 net.cpp:378] conv1 -> conv1
I0901 14:21:30.961272 21893 net.cpp:120] Setting up conv1
I0901 14:21:30.961529 21893 net.cpp:127] Top shape: 1 96 112 112 (1204224)
I0901 14:21:30.961541 21893 layer_factory.hpp:74] Creating layer relu1
I0901 14:21:30.961550 21893 net.cpp:90] Creating Layer relu1
I0901 14:21:30.961554 21893 net.cpp:420] relu1 <- conv1
I0901 14:21:30.961560 21893 net.cpp:367] relu1 -> conv1 (in-place)
I0901 14:21:30.961565 21893 net.cpp:120] Setting up relu1
I0901 14:21:30.961570 21893 net.cpp:127] Top shape: 1 96 112 112 (1204224)
I0901 14:21:30.961572 21893 layer_factory.hpp:74] Creating layer norm1
I0901 14:21:30.961598 21893 net.cpp:90] Creating Layer norm1
I0901 14:21:30.961602 21893 net.cpp:420] norm1 <- conv1
I0901 14:21:30.961612 21893 net.cpp:378] norm1 -> norm1
I0901 14:21:30.961621 21893 net.cpp:120] Setting up norm1
I0901 14:21:30.961660 21893 net.cpp:127] Top shape: 1 96 112 112 (1204224)
I0901 14:21:30.961664 21893 layer_factory.hpp:74] Creating layer pool1
I0901 14:21:30.961675 21893 net.cpp:90] Creating Layer pool1
I0901 14:21:30.961679 21893 net.cpp:420] pool1 <- norm1
I0901 14:21:30.961689 21893 net.cpp:378] pool1 -> pool1
I0901 14:21:30.961696 21893 net.cpp:120] Setting up pool1
I0901 14:21:30.961710 21893 net.cpp:127] Top shape: 1 96 57 57 (311904)
I0901 14:21:30.961714 21893 layer_factory.hpp:74] Creating layer conv2
I0901 14:21:30.961727 21893 net.cpp:90] Creating Layer conv2
I0901 14:21:30.961731 21893 net.cpp:420] conv2 <- pool1
I0901 14:21:30.961743 21893 net.cpp:378] conv2 -> conv2
I0901 14:21:30.961752 21893 net.cpp:120] Setting up conv2
I0901 14:21:30.975347 21893 net.cpp:127] Top shape: 1 256 29 29 (215296)
I0901 14:21:30.975363 21893 layer_factory.hpp:74] Creating layer relu2
I0901 14:21:30.975373 21893 net.cpp:90] Creating Layer relu2
I0901 14:21:30.975376 21893 net.cpp:420] relu2 <- conv2
I0901 14:21:30.975386 21893 net.cpp:367] relu2 -> conv2 (in-place)
I0901 14:21:30.975394 21893 net.cpp:120] Setting up relu2
I0901 14:21:30.975404 21893 net.cpp:127] Top shape: 1 256 29 29 (215296)
I0901 14:21:30.975406 21893 layer_factory.hpp:74] Creating layer norm2
I0901 14:21:30.975417 21893 net.cpp:90] Creating Layer norm2
I0901 14:21:30.975420 21893 net.cpp:420] norm2 <- conv2
I0901 14:21:30.975431 21893 net.cpp:378] norm2 -> norm2
I0901 14:21:30.975438 21893 net.cpp:120] Setting up norm2
I0901 14:21:30.975471 21893 net.cpp:127] Top shape: 1 256 29 29 (215296)
I0901 14:21:30.975474 21893 layer_factory.hpp:74] Creating layer pool2
I0901 14:21:30.975484 21893 net.cpp:90] Creating Layer pool2
I0901 14:21:30.975488 21893 net.cpp:420] pool2 <- norm2
I0901 14:21:30.975497 21893 net.cpp:378] pool2 -> pool2
I0901 14:21:30.975504 21893 net.cpp:120] Setting up pool2
I0901 14:21:30.975517 21893 net.cpp:127] Top shape: 1 256 15 15 (57600)
I0901 14:21:30.975520 21893 layer_factory.hpp:74] Creating layer conv3
I0901 14:21:30.975533 21893 net.cpp:90] Creating Layer conv3
I0901 14:21:30.975538 21893 net.cpp:420] conv3 <- pool2
I0901 14:21:30.975548 21893 net.cpp:378] conv3 -> conv3
I0901 14:21:30.975555 21893 net.cpp:120] Setting up conv3
I0901 14:21:30.993352 21893 net.cpp:127] Top shape: 1 384 15 15 (86400)
I0901 14:21:30.993372 21893 layer_factory.hpp:74] Creating layer relu3
I0901 14:21:30.993382 21893 net.cpp:90] Creating Layer relu3
I0901 14:21:30.993386 21893 net.cpp:420] relu3 <- conv3
I0901 14:21:30.993396 21893 net.cpp:367] relu3 -> conv3 (in-place)
I0901 14:21:30.993402 21893 net.cpp:120] Setting up relu3
I0901 14:21:30.993409 21893 net.cpp:127] Top shape: 1 384 15 15 (86400)
I0901 14:21:30.993412 21893 layer_factory.hpp:74] Creating layer conv4
I0901 14:21:30.993424 21893 net.cpp:90] Creating Layer conv4
I0901 14:21:30.993427 21893 net.cpp:420] conv4 <- conv3
I0901 14:21:30.993444 21893 net.cpp:378] conv4 -> conv4
I0901 14:21:30.993453 21893 net.cpp:120] Setting up conv4
I0901 14:21:31.010030 21893 net.cpp:127] Top shape: 1 384 15 15 (86400)
I0901 14:21:31.010038 21893 layer_factory.hpp:74] Creating layer relu4
I0901 14:21:31.010048 21893 net.cpp:90] Creating Layer relu4
I0901 14:21:31.010051 21893 net.cpp:420] relu4 <- conv4
I0901 14:21:31.010059 21893 net.cpp:367] relu4 -> conv4 (in-place)
I0901 14:21:31.010064 21893 net.cpp:120] Setting up relu4
I0901 14:21:31.010069 21893 net.cpp:127] Top shape: 1 384 15 15 (86400)
I0901 14:21:31.010071 21893 layer_factory.hpp:74] Creating layer conv5
I0901 14:21:31.010083 21893 net.cpp:90] Creating Layer conv5
I0901 14:21:31.010085 21893 net.cpp:420] conv5 <- conv4
I0901 14:21:31.010092 21893 net.cpp:378] conv5 -> conv5
I0901 14:21:31.010097 21893 net.cpp:120] Setting up conv5
I0901 14:21:31.020282 21893 net.cpp:127] Top shape: 1 256 15 15 (57600)
I0901 14:21:31.020293 21893 layer_factory.hpp:74] Creating layer relu5
I0901 14:21:31.020303 21893 net.cpp:90] Creating Layer relu5
I0901 14:21:31.020306 21893 net.cpp:420] relu5 <- conv5
I0901 14:21:31.020313 21893 net.cpp:367] relu5 -> conv5 (in-place)
I0901 14:21:31.020326 21893 net.cpp:120] Setting up relu5
I0901 14:21:31.020334 21893 net.cpp:127] Top shape: 1 256 15 15 (57600)
I0901 14:21:31.020335 21893 layer_factory.hpp:74] Creating layer conv_proposal1
I0901 14:21:31.020344 21893 net.cpp:90] Creating Layer conv_proposal1
I0901 14:21:31.020346 21893 net.cpp:420] conv_proposal1 <- conv5
I0901 14:21:31.020356 21893 net.cpp:378] conv_proposal1 -> conv_proposal1
I0901 14:21:31.020362 21893 net.cpp:120] Setting up conv_proposal1
I0901 14:21:31.026988 21893 net.cpp:127] Top shape: 1 256 15 15 (57600)
I0901 14:21:31.026993 21893 layer_factory.hpp:74] Creating layer relu_proposal1
I0901 14:21:31.027001 21893 net.cpp:90] Creating Layer relu_proposal1
I0901 14:21:31.027004 21893 net.cpp:420] relu_proposal1 <- conv_proposal1
I0901 14:21:31.027009 21893 net.cpp:367] relu_proposal1 -> conv_proposal1 (in-place)
I0901 14:21:31.027012 21893 net.cpp:120] Setting up relu_proposal1
I0901 14:21:31.027017 21893 net.cpp:127] Top shape: 1 256 15 15 (57600)
I0901 14:21:31.027020 21893 layer_factory.hpp:74] Creating layer conv_proposal1_relu_proposal1_0_split
I0901 14:21:31.027045 21893 net.cpp:90] Creating Layer conv_proposal1_relu_proposal1_0_split
I0901 14:21:31.027046 21893 net.cpp:420] conv_proposal1_relu_proposal1_0_split <- conv_proposal1
I0901 14:21:31.027053 21893 net.cpp:378] conv_proposal1_relu_proposal1_0_split -> conv_proposal1_relu_proposal1_0_split_0
I0901 14:21:31.027062 21893 net.cpp:378] conv_proposal1_relu_proposal1_0_split -> conv_proposal1_relu_proposal1_0_split_1
I0901 14:21:31.027070 21893 net.cpp:120] Setting up conv_proposal1_relu_proposal1_0_split
I0901 14:21:31.027076 21893 net.cpp:127] Top shape: 1 256 15 15 (57600)
I0901 14:21:31.027081 21893 net.cpp:127] Top shape: 1 256 15 15 (57600)
I0901 14:21:31.027082 21893 layer_factory.hpp:74] Creating layer proposal_cls_score
I0901 14:21:31.027091 21893 net.cpp:90] Creating Layer proposal_cls_score
I0901 14:21:31.027093 21893 net.cpp:420] proposal_cls_score <- conv_proposal1_relu_proposal1_0_split_0
I0901 14:21:31.027101 21893 net.cpp:378] proposal_cls_score -> proposal_cls_score
I0901 14:21:31.027107 21893 net.cpp:120] Setting up proposal_cls_score
I0901 14:21:31.027178 21893 net.cpp:127] Top shape: 1 18 15 15 (4050)
I0901 14:21:31.027184 21893 layer_factory.hpp:74] Creating layer proposal_bbox_pred
I0901 14:21:31.027192 21893 net.cpp:90] Creating Layer proposal_bbox_pred
I0901 14:21:31.027194 21893 net.cpp:420] proposal_bbox_pred <- conv_proposal1_relu_proposal1_0_split_1
I0901 14:21:31.027202 21893 net.cpp:378] proposal_bbox_pred -> proposal_bbox_pred
I0901 14:21:31.027207 21893 net.cpp:120] Setting up proposal_bbox_pred
I0901 14:21:31.027323 21893 net.cpp:127] Top shape: 1 36 15 15 (8100)
I0901 14:21:31.027328 21893 layer_factory.hpp:74] Creating layer proposal_cls_score_reshape
I0901 14:21:31.027338 21893 net.cpp:90] Creating Layer proposal_cls_score_reshape
I0901 14:21:31.027339 21893 net.cpp:420] proposal_cls_score_reshape <- proposal_cls_score
I0901 14:21:31.027375 21893 net.cpp:378] proposal_cls_score_reshape -> proposal_cls_score_reshape
I0901 14:21:31.027384 21893 net.cpp:120] Setting up proposal_cls_score_reshape
I0901 14:21:31.027392 21893 net.cpp:127] Top shape: 1 2 135 15 (4050)
I0901 14:21:31.027395 21893 layer_factory.hpp:74] Creating layer proposal_cls_prob
I0901 14:21:31.027402 21893 net.cpp:90] Creating Layer proposal_cls_prob
I0901 14:21:31.027405 21893 net.cpp:420] proposal_cls_prob <- proposal_cls_score_reshape
I0901 14:21:31.027411 21893 net.cpp:378] proposal_cls_prob -> proposal_cls_prob
I0901 14:21:31.027420 21893 net.cpp:120] Setting up proposal_cls_prob
I0901 14:21:31.027428 21893 net.cpp:127] Top shape: 1 2 135 15 (4050)
I0901 14:21:31.027431 21893 net.cpp:194] proposal_cls_prob does not need backward computation.
I0901 14:21:31.027434 21893 net.cpp:194] proposal_cls_score_reshape does not need backward computation.
I0901 14:21:31.027437 21893 net.cpp:194] proposal_bbox_pred does not need backward computation.
I0901 14:21:31.027441 21893 net.cpp:194] proposal_cls_score does not need backward computation.
…
