…
I0901 12:29:19.247758 21893 solver.cpp:70] Creating training net from net file: ./models/rpn_prototxts/ZF/train_val.prototxt
I0901 12:29:19.248330 21893 net.cpp:42] Initializing net from parameters: 
name: "Zeiler_conv5"
input: "data"
input: "labels"
input: "labels_weights"
input: "bbox_targets"
input: "bbox_loss_weights"
input_dim: 1
input_dim: 3
input_dim: 224
input_dim: 224
input_dim: 1
input_dim: 9
input_dim: 15
input_dim: 15
input_dim: 1
input_dim: 9
input_dim: 15
input_dim: 15
input_dim: 1
input_dim: 36
input_dim: 15
input_dim: 15
input_dim: 1
input_dim: 36
input_dim: 15
input_dim: 15
state {
  phase: TRAIN
}
layer {
  name: "conv1"
  type: "Convolution"
  bottom: "data"
  top: "conv1"
  param {
    lr_mult: 1
  }
  param {
    lr_mult: 2
  }
  convolution_param {
    num_output: 96
    pad: 3
    kernel_size: 7
    stride: 2
    weight_filler {
      type: "gaussian"
      std: 0.01
    }
    bias_filler {
      type: "constant"
      value: 0
    }
  }
}
layer {
  name: "relu1"
  type: "ReLU"
  bottom: "conv1"
  top: "conv1"
}
layer {
  name: "norm1"
  type: "LRN"
  bottom: "conv1"
  top: "norm1"
  lrn_param {
    local_size: 3
    alpha: 5e-05
    beta: 0.75
    norm_region: WITHIN_CHANNEL
  }
}
layer {
  name: "pool1"
  type: "Pooling"
  bottom: "norm1"
  top: "pool1"
  pooling_param {
    pool: MAX
    kernel_size: 3
    stride: 2
    pad: 1
  }
}
layer {
  name: "conv2"
  type: "Convolution"
  bottom: "pool1"
  top: "conv2"
  param {
    lr_mult: 1
  }
  param {
    lr_mult: 2
  }
  convolution_param {
    num_output: 256
    pad: 2
    kernel_size: 5
    stride: 2
    weight_filler {
      type: "gaussian"
      std: 0.01
    }
    bias_filler {
      type: "constant"
      value: 1
    }
  }
}
layer {
  name: "relu2"
  type: "ReLU"
  bottom: "conv2"
  top: "conv2"
}
layer {
  name: "norm2"
  type: "LRN"
  bottom: "conv2"
  top: "norm2"
  lrn_param {
    local_size: 3
    alpha: 5e-05
    beta: 0.75
    norm_region: WITHIN_CHANNEL
  }
}
layer {
  name: "pool2"
  type: "Pooling"
  bottom: "norm2"
  top: "pool2"
  pooling_param {
    pool: MAX
    kernel_size: 3
    stride: 2
    pad: 1
  }
}
layer {
  name: "conv3"
  type: "Convolution"
  bottom: "pool2"
  top: "conv3"
  param {
    lr_mult: 1
  }
  param {
    lr_mult: 2
  }
  convolution_param {
    num_output: 384
    pad: 1
    kernel_size: 3
    stride: 1
    weight_filler {
      type: "gaussian"
      std: 0.01
    }
    bias_filler {
      type: "constant"
      value: 0
    }
  }
}
layer {
  name: "relu3"
  type: "ReLU"
  bottom: "conv3"
  top: "conv3"
}
layer {
  name: "conv4"
  type: "Convolution"
  bottom: "conv3"
  top: "conv4"
  param {
    lr_mult: 1
  }
  param {
    lr_mult: 2
  }
  convolution_param {
    num_output: 384
    pad: 1
    kernel_size: 3
    stride: 1
    weight_filler {
      type: "gaussian"
      std: 0.01
    }
    bias_filler {
      type: "constant"
      value: 1
    }
  }
}
layer {
  name: "relu4"
  type: "ReLU"
  bottom: "conv4"
  top: "conv4"
}
layer {
  name: "conv5"
  type: "Convolution"
  bottom: "conv4"
  top: "conv5"
  param {
    lr_mult: 1
  }
  param {
    lr_mult: 2
  }
  convolution_param {
    num_output: 256
    pad: 1
    kernel_size: 3
    stride: 1
    weight_filler {
      type: "gaussian"
      std: 0.01
    }
    bias_filler {
      type: "constant"
      value: 1
    }
  }
}
layer {
  name: "relu5"
  type: "ReLU"
  bottom: "conv5"
  top: "conv5"
}
layer {
  name: "conv_proposal1"
  type: "Convolution"
  bottom: "conv5"
  top: "conv_proposal1"
  param {
    lr_mult: 1
  }
  param {
    lr_mult: 2
  }
  convolution_param {
    num_output: 256
    pad: 1
    kernel_size: 3
    stride: 1
    weight_filler {
      type: "gaussian"
      std: 0.01
    }
    bias_filler {
      type: "constant"
      value: 0
    }
  }
}
layer {
  name: "relu_proposal1"
  type: "ReLU"
  bottom: "conv_proposal1"
  top: "conv_proposal1"
}
layer {
  name: "proposal_cls_score"
  type: "Convolution"
  bottom: "conv_proposal1"
  top: "proposal_cls_score"
  param {
    lr_mult: 1
  }
  param {
    lr_mult: 2
  }
  convolution_param {
    num_output: 18
    pad: 0
    kernel_size: 1
    stride: 1
    weight_filler {
      type: "gaussian"
      std: 0.01
    }
    bias_filler {
      type: "constant"
      value: 0
    }
  }
}
layer {
  name: "proposal_bbox_pred"
  type: "Convolution"
  bottom: "conv_proposal1"
  top: "proposal_bbox_pred"
  param {
    lr_mult: 1
  }
  param {
    lr_mult: 2
  }
  convolution_param {
    num_output: 36
    pad: 0
    kernel_size: 1
    stride: 1
    weight_filler {
      type: "gaussian"
      std: 0.01
    }
    bias_filler {
      type: "constant"
      value: 0
    }
  }
}
layer {
  name: "proposal_cls_score_reshape"
  type: "Reshape"
  bottom: "proposal_cls_score"
  top: "proposal_cls_score_reshape"
  reshape_param {
    shape {
      dim: 0
      dim: 2
      dim: -1
      dim: 0
    }
  }
}
layer {
  name: "labels_reshape"
  type: "Reshape"
  bottom: "labels"
  top: "labels_reshape"
  reshape_param {
    shape {
      dim: 0
      dim: 1
      dim: -1
      dim: 0
    }
  }
}
layer {
  name: "labels_weights_reshape"
  type: "Reshape"
  bottom: "labels_weights"
  top: "labels_weights_reshape"
  reshape_param {
    shape {
      dim: 0
      dim: 1
      dim: -1
      dim: 0
    }
  }
}
layer {
  name: "loss"
  type: "SoftmaxWithLoss"
  bottom: "proposal_cls_score_reshape"
  bottom: "labels_reshape"
  bottom: "labels_weights_reshape"
  top: "loss_cls"
  loss_weight: 1
}
layer {
  name: "accuarcy"
  type: "Accuracy"
  bottom: "proposal_cls_score_reshape"
  bottom: "labels_reshape"
  top: "accuarcy"
}
layer {
  name: "loss_bbox"
  type: "SmoothL1Loss"
  bottom: "proposal_bbox_pred"
  bottom: "bbox_targets"
  bottom: "bbox_loss_weights"
  top: "loss_bbox"
  loss_weight: 10
}
I0901 12:29:19.248519 21893 net.cpp:380] Input 0 -> data
I0901 12:29:19.248533 21893 net.cpp:380] Input 1 -> labels
I0901 12:29:19.248539 21893 net.cpp:380] Input 2 -> labels_weights
I0901 12:29:19.248545 21893 net.cpp:380] Input 3 -> bbox_targets
I0901 12:29:19.248550 21893 net.cpp:380] Input 4 -> bbox_loss_weights
I0901 12:29:19.248572 21893 layer_factory.hpp:74] Creating layer conv1
I0901 12:29:19.248582 21893 net.cpp:90] Creating Layer conv1
I0901 12:29:19.248585 21893 net.cpp:420] conv1 <- data
I0901 12:29:19.248594 21893 net.cpp:378] conv1 -> conv1
I0901 12:29:19.248601 21893 net.cpp:120] Setting up conv1
I0901 12:29:19.248831 21893 net.cpp:127] Top shape: 1 96 112 112 (1204224)
I0901 12:29:19.248842 21893 layer_factory.hpp:74] Creating layer relu1
I0901 12:29:19.248849 21893 net.cpp:90] Creating Layer relu1
I0901 12:29:19.248852 21893 net.cpp:420] relu1 <- conv1
I0901 12:29:19.248857 21893 net.cpp:367] relu1 -> conv1 (in-place)
I0901 12:29:19.248862 21893 net.cpp:120] Setting up relu1
I0901 12:29:19.248867 21893 net.cpp:127] Top shape: 1 96 112 112 (1204224)
I0901 12:29:19.248869 21893 layer_factory.hpp:74] Creating layer norm1
I0901 12:29:19.248877 21893 net.cpp:90] Creating Layer norm1
I0901 12:29:19.248879 21893 net.cpp:420] norm1 <- conv1
I0901 12:29:19.248883 21893 net.cpp:378] norm1 -> norm1
I0901 12:29:19.248888 21893 net.cpp:120] Setting up norm1
I0901 12:29:19.248924 21893 net.cpp:127] Top shape: 1 96 112 112 (1204224)
I0901 12:29:19.248926 21893 layer_factory.hpp:74] Creating layer pool1
I0901 12:29:19.248934 21893 net.cpp:90] Creating Layer pool1
I0901 12:29:19.248936 21893 net.cpp:420] pool1 <- norm1
I0901 12:29:19.248941 21893 net.cpp:378] pool1 -> pool1
I0901 12:29:19.248945 21893 net.cpp:120] Setting up pool1
I0901 12:29:19.248952 21893 net.cpp:127] Top shape: 1 96 57 57 (311904)
I0901 12:29:19.248955 21893 layer_factory.hpp:74] Creating layer conv2
I0901 12:29:19.248961 21893 net.cpp:90] Creating Layer conv2
I0901 12:29:19.248965 21893 net.cpp:420] conv2 <- pool1
I0901 12:29:19.248970 21893 net.cpp:378] conv2 -> conv2
I0901 12:29:19.248976 21893 net.cpp:120] Setting up conv2
I0901 12:29:19.257144 21893 net.cpp:127] Top shape: 1 256 29 29 (215296)
I0901 12:29:19.257153 21893 layer_factory.hpp:74] Creating layer relu2
I0901 12:29:19.257158 21893 net.cpp:90] Creating Layer relu2
I0901 12:29:19.257160 21893 net.cpp:420] relu2 <- conv2
I0901 12:29:19.257179 21893 net.cpp:367] relu2 -> conv2 (in-place)
I0901 12:29:19.257184 21893 net.cpp:120] Setting up relu2
I0901 12:29:19.257189 21893 net.cpp:127] Top shape: 1 256 29 29 (215296)
I0901 12:29:19.257191 21893 layer_factory.hpp:74] Creating layer norm2
I0901 12:29:19.257196 21893 net.cpp:90] Creating Layer norm2
I0901 12:29:19.257200 21893 net.cpp:420] norm2 <- conv2
I0901 12:29:19.257203 21893 net.cpp:378] norm2 -> norm2
I0901 12:29:19.257208 21893 net.cpp:120] Setting up norm2
I0901 12:29:19.257230 21893 net.cpp:127] Top shape: 1 256 29 29 (215296)
I0901 12:29:19.257232 21893 layer_factory.hpp:74] Creating layer pool2
I0901 12:29:19.257236 21893 net.cpp:90] Creating Layer pool2
I0901 12:29:19.257239 21893 net.cpp:420] pool2 <- norm2
I0901 12:29:19.257243 21893 net.cpp:378] pool2 -> pool2
I0901 12:29:19.257247 21893 net.cpp:120] Setting up pool2
I0901 12:29:19.257253 21893 net.cpp:127] Top shape: 1 256 15 15 (57600)
I0901 12:29:19.257256 21893 layer_factory.hpp:74] Creating layer conv3
I0901 12:29:19.257262 21893 net.cpp:90] Creating Layer conv3
I0901 12:29:19.257266 21893 net.cpp:420] conv3 <- pool2
I0901 12:29:19.257272 21893 net.cpp:378] conv3 -> conv3
I0901 12:29:19.257277 21893 net.cpp:120] Setting up conv3
I0901 12:29:19.268533 21893 net.cpp:127] Top shape: 1 384 15 15 (86400)
I0901 12:29:19.268543 21893 layer_factory.hpp:74] Creating layer relu3
I0901 12:29:19.268548 21893 net.cpp:90] Creating Layer relu3
I0901 12:29:19.268550 21893 net.cpp:420] relu3 <- conv3
I0901 12:29:19.268555 21893 net.cpp:367] relu3 -> conv3 (in-place)
I0901 12:29:19.268559 21893 net.cpp:120] Setting up relu3
I0901 12:29:19.268564 21893 net.cpp:127] Top shape: 1 384 15 15 (86400)
I0901 12:29:19.268566 21893 layer_factory.hpp:74] Creating layer conv4
I0901 12:29:19.268573 21893 net.cpp:90] Creating Layer conv4
I0901 12:29:19.268575 21893 net.cpp:420] conv4 <- conv3
I0901 12:29:19.268582 21893 net.cpp:378] conv4 -> conv4
I0901 12:29:19.268587 21893 net.cpp:120] Setting up conv4
I0901 12:29:19.284567 21893 net.cpp:127] Top shape: 1 384 15 15 (86400)
I0901 12:29:19.284574 21893 layer_factory.hpp:74] Creating layer relu4
I0901 12:29:19.284579 21893 net.cpp:90] Creating Layer relu4
I0901 12:29:19.284582 21893 net.cpp:420] relu4 <- conv4
I0901 12:29:19.284587 21893 net.cpp:367] relu4 -> conv4 (in-place)
I0901 12:29:19.284590 21893 net.cpp:120] Setting up relu4
I0901 12:29:19.284595 21893 net.cpp:127] Top shape: 1 384 15 15 (86400)
I0901 12:29:19.284596 21893 layer_factory.hpp:74] Creating layer conv5
I0901 12:29:19.284603 21893 net.cpp:90] Creating Layer conv5
I0901 12:29:19.284605 21893 net.cpp:420] conv5 <- conv4
I0901 12:29:19.284612 21893 net.cpp:378] conv5 -> conv5
I0901 12:29:19.284618 21893 net.cpp:120] Setting up conv5
I0901 12:29:19.295029 21893 net.cpp:127] Top shape: 1 256 15 15 (57600)
I0901 12:29:19.295044 21893 layer_factory.hpp:74] Creating layer relu5
I0901 12:29:19.295051 21893 net.cpp:90] Creating Layer relu5
I0901 12:29:19.295054 21893 net.cpp:420] relu5 <- conv5
I0901 12:29:19.295061 21893 net.cpp:367] relu5 -> conv5 (in-place)
I0901 12:29:19.295066 21893 net.cpp:120] Setting up relu5
I0901 12:29:19.295071 21893 net.cpp:127] Top shape: 1 256 15 15 (57600)
I0901 12:29:19.295073 21893 layer_factory.hpp:74] Creating layer conv_proposal1
I0901 12:29:19.295094 21893 net.cpp:90] Creating Layer conv_proposal1
I0901 12:29:19.295095 21893 net.cpp:420] conv_proposal1 <- conv5
I0901 12:29:19.295102 21893 net.cpp:378] conv_proposal1 -> conv_proposal1
I0901 12:29:19.295109 21893 net.cpp:120] Setting up conv_proposal1
I0901 12:29:19.301692 21893 net.cpp:127] Top shape: 1 256 15 15 (57600)
I0901 12:29:19.301697 21893 layer_factory.hpp:74] Creating layer relu_proposal1
I0901 12:29:19.301702 21893 net.cpp:90] Creating Layer relu_proposal1
I0901 12:29:19.301704 21893 net.cpp:420] relu_proposal1 <- conv_proposal1
I0901 12:29:19.301710 21893 net.cpp:367] relu_proposal1 -> conv_proposal1 (in-place)
I0901 12:29:19.301714 21893 net.cpp:120] Setting up relu_proposal1
I0901 12:29:19.301718 21893 net.cpp:127] Top shape: 1 256 15 15 (57600)
I0901 12:29:19.301746 21893 layer_factory.hpp:74] Creating layer conv_proposal1_relu_proposal1_0_split
I0901 12:29:19.301759 21893 net.cpp:90] Creating Layer conv_proposal1_relu_proposal1_0_split
I0901 12:29:19.301760 21893 net.cpp:420] conv_proposal1_relu_proposal1_0_split <- conv_proposal1
I0901 12:29:19.301766 21893 net.cpp:378] conv_proposal1_relu_proposal1_0_split -> conv_proposal1_relu_proposal1_0_split_0
I0901 12:29:19.301775 21893 net.cpp:378] conv_proposal1_relu_proposal1_0_split -> conv_proposal1_relu_proposal1_0_split_1
I0901 12:29:19.301784 21893 net.cpp:120] Setting up conv_proposal1_relu_proposal1_0_split
I0901 12:29:19.301790 21893 net.cpp:127] Top shape: 1 256 15 15 (57600)
I0901 12:29:19.301795 21893 net.cpp:127] Top shape: 1 256 15 15 (57600)
I0901 12:29:19.301796 21893 layer_factory.hpp:74] Creating layer proposal_cls_score
I0901 12:29:19.301805 21893 net.cpp:90] Creating Layer proposal_cls_score
I0901 12:29:19.301806 21893 net.cpp:420] proposal_cls_score <- conv_proposal1_relu_proposal1_0_split_0
I0901 12:29:19.301815 21893 net.cpp:378] proposal_cls_score -> proposal_cls_score
I0901 12:29:19.301820 21893 net.cpp:120] Setting up proposal_cls_score
I0901 12:29:19.301921 21893 net.cpp:127] Top shape: 1 18 15 15 (4050)
I0901 12:29:19.301926 21893 layer_factory.hpp:74] Creating layer proposal_bbox_pred
I0901 12:29:19.301935 21893 net.cpp:90] Creating Layer proposal_bbox_pred
I0901 12:29:19.301937 21893 net.cpp:420] proposal_bbox_pred <- conv_proposal1_relu_proposal1_0_split_1
I0901 12:29:19.301945 21893 net.cpp:378] proposal_bbox_pred -> proposal_bbox_pred
I0901 12:29:19.301951 21893 net.cpp:120] Setting up proposal_bbox_pred
I0901 12:29:19.302074 21893 net.cpp:127] Top shape: 1 36 15 15 (8100)
I0901 12:29:19.302078 21893 layer_factory.hpp:74] Creating layer proposal_cls_score_reshape
I0901 12:29:19.302088 21893 net.cpp:90] Creating Layer proposal_cls_score_reshape
I0901 12:29:19.302090 21893 net.cpp:420] proposal_cls_score_reshape <- proposal_cls_score
I0901 12:29:19.302098 21893 net.cpp:378] proposal_cls_score_reshape -> proposal_cls_score_reshape
I0901 12:29:19.302103 21893 net.cpp:120] Setting up proposal_cls_score_reshape
I0901 12:29:19.302112 21893 net.cpp:127] Top shape: 1 2 135 15 (4050)
I0901 12:29:19.302114 21893 layer_factory.hpp:74] Creating layer proposal_cls_score_reshape_proposal_cls_score_reshape_0_split
I0901 12:29:19.302121 21893 net.cpp:90] Creating Layer proposal_cls_score_reshape_proposal_cls_score_reshape_0_split
I0901 12:29:19.302124 21893 net.cpp:420] proposal_cls_score_reshape_proposal_cls_score_reshape_0_split <- proposal_cls_score_reshape
I0901 12:29:19.302129 21893 net.cpp:378] proposal_cls_score_reshape_proposal_cls_score_reshape_0_split -> proposal_cls_score_reshape_proposal_cls_score_reshape_0_split_0
I0901 12:29:19.302137 21893 net.cpp:378] proposal_cls_score_reshape_proposal_cls_score_reshape_0_split -> proposal_cls_score_reshape_proposal_cls_score_reshape_0_split_1
I0901 12:29:19.302144 21893 net.cpp:120] Setting up proposal_cls_score_reshape_proposal_cls_score_reshape_0_split
I0901 12:29:19.302148 21893 net.cpp:127] Top shape: 1 2 135 15 (4050)
I0901 12:29:19.302152 21893 net.cpp:127] Top shape: 1 2 135 15 (4050)
I0901 12:29:19.302155 21893 layer_factory.hpp:74] Creating layer labels_reshape
I0901 12:29:19.302161 21893 net.cpp:90] Creating Layer labels_reshape
I0901 12:29:19.302163 21893 net.cpp:420] labels_reshape <- labels
I0901 12:29:19.302170 21893 net.cpp:378] labels_reshape -> labels_reshape
I0901 12:29:19.302175 21893 net.cpp:120] Setting up labels_reshape
I0901 12:29:19.302181 21893 net.cpp:127] Top shape: 1 1 135 15 (2025)
I0901 12:29:19.302182 21893 layer_factory.hpp:74] Creating layer labels_reshape_labels_reshape_0_split
I0901 12:29:19.302188 21893 net.cpp:90] Creating Layer labels_reshape_labels_reshape_0_split
I0901 12:29:19.302191 21893 net.cpp:420] labels_reshape_labels_reshape_0_split <- labels_reshape
I0901 12:29:19.302196 21893 net.cpp:378] labels_reshape_labels_reshape_0_split -> labels_reshape_labels_reshape_0_split_0
I0901 12:29:19.302204 21893 net.cpp:378] labels_reshape_labels_reshape_0_split -> labels_reshape_labels_reshape_0_split_1
I0901 12:29:19.302218 21893 net.cpp:120] Setting up labels_reshape_labels_reshape_0_split
I0901 12:29:19.302224 21893 net.cpp:127] Top shape: 1 1 135 15 (2025)
I0901 12:29:19.302228 21893 net.cpp:127] Top shape: 1 1 135 15 (2025)
I0901 12:29:19.302232 21893 layer_factory.hpp:74] Creating layer labels_weights_reshape
I0901 12:29:19.302239 21893 net.cpp:90] Creating Layer labels_weights_reshape
I0901 12:29:19.302242 21893 net.cpp:420] labels_weights_reshape <- labels_weights
I0901 12:29:19.302248 21893 net.cpp:378] labels_weights_reshape -> labels_weights_reshape
I0901 12:29:19.302253 21893 net.cpp:120] Setting up labels_weights_reshape
I0901 12:29:19.302258 21893 net.cpp:127] Top shape: 1 1 135 15 (2025)
I0901 12:29:19.302261 21893 layer_factory.hpp:74] Creating layer loss
I0901 12:29:19.302268 21893 net.cpp:90] Creating Layer loss
I0901 12:29:19.302270 21893 net.cpp:420] loss <- proposal_cls_score_reshape_proposal_cls_score_reshape_0_split_0
I0901 12:29:19.302273 21893 net.cpp:420] loss <- labels_reshape_labels_reshape_0_split_0
I0901 12:29:19.302278 21893 net.cpp:420] loss <- labels_weights_reshape
…
