…
I0901 10:35:32.091822 21893 solver.cpp:70] Creating training net from net file: ./models/rpn_prototxts/ZF/train_val.prototxt
I0901 10:35:32.092242 21893 net.cpp:42] Initializing net from parameters: 
name: "Zeiler_conv5"
input: "data"
input: "labels"
input: "labels_weights"
input: "bbox_targets"
input: "bbox_loss_weights"
input_dim: 1
input_dim: 3
input_dim: 224
input_dim: 224
input_dim: 1
input_dim: 9
input_dim: 15
input_dim: 15
input_dim: 1
input_dim: 9
input_dim: 15
input_dim: 15
input_dim: 1
input_dim: 36
input_dim: 15
input_dim: 15
input_dim: 1
input_dim: 36
input_dim: 15
input_dim: 15
state {
  phase: TRAIN
}
layer {
  name: "conv1"
  type: "Convolution"
  bottom: "data"
  top: "conv1"
  param {
    lr_mult: 1
  }
  param {
    lr_mult: 2
  }
  convolution_param {
    num_output: 96
    pad: 3
    kernel_size: 7
    stride: 2
    weight_filler {
      type: "gaussian"
      std: 0.01
    }
    bias_filler {
      type: "constant"
      value: 0
    }
  }
}
layer {
  name: "relu1"
  type: "ReLU"
  bottom: "conv1"
  top: "conv1"
}
layer {
  name: "norm1"
  type: "LRN"
  bottom: "conv1"
  top: "norm1"
  lrn_param {
    local_size: 3
    alpha: 5e-05
    beta: 0.75
    norm_region: WITHIN_CHANNEL
  }
}
layer {
  name: "pool1"
  type: "Pooling"
  bottom: "norm1"
  top: "pool1"
  pooling_param {
    pool: MAX
    kernel_size: 3
    stride: 2
    pad: 1
  }
}
layer {
  name: "conv2"
  type: "Convolution"
  bottom: "pool1"
  top: "conv2"
  param {
    lr_mult: 1
  }
  param {
    lr_mult: 2
  }
  convolution_param {
    num_output: 256
    pad: 2
    kernel_size: 5
    stride: 2
    weight_filler {
      type: "gaussian"
      std: 0.01
    }
    bias_filler {
      type: "constant"
      value: 1
    }
  }
}
layer {
  name: "relu2"
  type: "ReLU"
  bottom: "conv2"
  top: "conv2"
}
layer {
  name: "norm2"
  type: "LRN"
  bottom: "conv2"
  top: "norm2"
  lrn_param {
    local_size: 3
    alpha: 5e-05
    beta: 0.75
    norm_region: WITHIN_CHANNEL
  }
}
layer {
  name: "pool2"
  type: "Pooling"
  bottom: "norm2"
  top: "pool2"
  pooling_param {
    pool: MAX
    kernel_size: 3
    stride: 2
    pad: 1
  }
}
layer {
  name: "conv3"
  type: "Convolution"
  bottom: "pool2"
  top: "conv3"
  param {
    lr_mult: 1
  }
  param {
    lr_mult: 2
  }
  convolution_param {
    num_output: 384
    pad: 1
    kernel_size: 3
    stride: 1
    weight_filler {
      type: "gaussian"
      std: 0.01
    }
    bias_filler {
      type: "constant"
      value: 0
    }
  }
}
layer {
  name: "relu3"
  type: "ReLU"
  bottom: "conv3"
  top: "conv3"
}
layer {
  name: "conv4"
  type: "Convolution"
  bottom: "conv3"
  top: "conv4"
  param {
    lr_mult: 1
  }
  param {
    lr_mult: 2
  }
  convolution_param {
    num_output: 384
    pad: 1
    kernel_size: 3
    stride: 1
    weight_filler {
      type: "gaussian"
      std: 0.01
    }
    bias_filler {
      type: "constant"
      value: 1
    }
  }
}
layer {
  name: "relu4"
  type: "ReLU"
  bottom: "conv4"
  top: "conv4"
}
layer {
  name: "conv5"
  type: "Convolution"
  bottom: "conv4"
  top: "conv5"
  param {
    lr_mult: 1
  }
  param {
    lr_mult: 2
  }
  convolution_param {
    num_output: 256
    pad: 1
    kernel_size: 3
    stride: 1
    weight_filler {
      type: "gaussian"
      std: 0.01
    }
    bias_filler {
      type: "constant"
      value: 1
    }
  }
}
layer {
  name: "relu5"
  type: "ReLU"
  bottom: "conv5"
  top: "conv5"
}
layer {
  name: "conv_proposal1"
  type: "Convolution"
  bottom: "conv5"
  top: "conv_proposal1"
  param {
    lr_mult: 1
  }
  param {
    lr_mult: 2
  }
  convolution_param {
    num_output: 256
    pad: 1
    kernel_size: 3
    stride: 1
    weight_filler {
      type: "gaussian"
      std: 0.01
    }
    bias_filler {
      type: "constant"
      value: 0
    }
  }
}
layer {
  name: "relu_proposal1"
  type: "ReLU"
  bottom: "conv_proposal1"
  top: "conv_proposal1"
}
layer {
  name: "proposal_cls_score"
  type: "Convolution"
  bottom: "conv_proposal1"
  top: "proposal_cls_score"
  param {
    lr_mult: 1
  }
  param {
    lr_mult: 2
  }
  convolution_param {
    num_output: 18
    pad: 0
    kernel_size: 1
    stride: 1
    weight_filler {
      type: "gaussian"
      std: 0.01
    }
    bias_filler {
      type: "constant"
      value: 0
    }
  }
}
layer {
  name: "proposal_bbox_pred"
  type: "Convolution"
  bottom: "conv_proposal1"
  top: "proposal_bbox_pred"
  param {
    lr_mult: 1
  }
  param {
    lr_mult: 2
  }
  convolution_param {
    num_output: 36
    pad: 0
    kernel_size: 1
    stride: 1
    weight_filler {
      type: "gaussian"
      std: 0.01
    }
    bias_filler {
      type: "constant"
      value: 0
    }
  }
}
layer {
  name: "proposal_cls_score_reshape"
  type: "Reshape"
  bottom: "proposal_cls_score"
  top: "proposal_cls_score_reshape"
  reshape_param {
    shape {
      dim: 0
      dim: 2
      dim: -1
      dim: 0
    }
  }
}
layer {
  name: "labels_reshape"
  type: "Reshape"
  bottom: "labels"
  top: "labels_reshape"
  reshape_param {
    shape {
      dim: 0
      dim: 1
      dim: -1
      dim: 0
    }
  }
}
layer {
  name: "labels_weights_reshape"
  type: "Reshape"
  bottom: "labels_weights"
  top: "labels_weights_reshape"
  reshape_param {
    shape {
      dim: 0
      dim: 1
      dim: -1
      dim: 0
    }
  }
}
layer {
  name: "loss"
  type: "SoftmaxWithLoss"
  bottom: "proposal_cls_score_reshape"
  bottom: "labels_reshape"
  bottom: "labels_weights_reshape"
  top: "loss_cls"
  loss_weight: 1
}
layer {
  name: "accuarcy"
  type: "Accuracy"
  bottom: "proposal_cls_score_reshape"
  bottom: "labels_reshape"
  top: "accuarcy"
}
layer {
  name: "loss_bbox"
  type: "SmoothL1Loss"
  bottom: "proposal_bbox_pred"
  bottom: "bbox_targets"
  bottom: "bbox_loss_weights"
  top: "loss_bbox"
  loss_weight: 10
}
I0901 10:35:32.092355 21893 net.cpp:380] Input 0 -> data
I0901 10:35:32.092365 21893 net.cpp:380] Input 1 -> labels
I0901 10:35:32.092368 21893 net.cpp:380] Input 2 -> labels_weights
I0901 10:35:32.092371 21893 net.cpp:380] Input 3 -> bbox_targets
I0901 10:35:32.092375 21893 net.cpp:380] Input 4 -> bbox_loss_weights
I0901 10:35:32.092386 21893 layer_factory.hpp:74] Creating layer conv1
I0901 10:35:32.092393 21893 net.cpp:90] Creating Layer conv1
I0901 10:35:32.092396 21893 net.cpp:420] conv1 <- data
I0901 10:35:32.092401 21893 net.cpp:378] conv1 -> conv1
I0901 10:35:32.092406 21893 net.cpp:120] Setting up conv1
I0901 10:35:32.092563 21893 net.cpp:127] Top shape: 1 96 112 112 (1204224)
I0901 10:35:32.092572 21893 layer_factory.hpp:74] Creating layer relu1
I0901 10:35:32.092577 21893 net.cpp:90] Creating Layer relu1
I0901 10:35:32.092579 21893 net.cpp:420] relu1 <- conv1
I0901 10:35:32.092582 21893 net.cpp:367] relu1 -> conv1 (in-place)
I0901 10:35:32.092586 21893 net.cpp:120] Setting up relu1
I0901 10:35:32.092588 21893 net.cpp:127] Top shape: 1 96 112 112 (1204224)
I0901 10:35:32.092591 21893 layer_factory.hpp:74] Creating layer norm1
I0901 10:35:32.092595 21893 net.cpp:90] Creating Layer norm1
I0901 10:35:32.092597 21893 net.cpp:420] norm1 <- conv1
I0901 10:35:32.092599 21893 net.cpp:378] norm1 -> norm1
I0901 10:35:32.092602 21893 net.cpp:120] Setting up norm1
I0901 10:35:32.092622 21893 net.cpp:127] Top shape: 1 96 112 112 (1204224)
I0901 10:35:32.092622 21893 layer_factory.hpp:74] Creating layer pool1
I0901 10:35:32.092627 21893 net.cpp:90] Creating Layer pool1
I0901 10:35:32.092628 21893 net.cpp:420] pool1 <- norm1
I0901 10:35:32.092630 21893 net.cpp:378] pool1 -> pool1
I0901 10:35:32.092633 21893 net.cpp:120] Setting up pool1
I0901 10:35:32.092638 21893 net.cpp:127] Top shape: 1 96 57 57 (311904)
I0901 10:35:32.092638 21893 layer_factory.hpp:74] Creating layer conv2
I0901 10:35:32.092643 21893 net.cpp:90] Creating Layer conv2
I0901 10:35:32.092644 21893 net.cpp:420] conv2 <- pool1
I0901 10:35:32.092648 21893 net.cpp:378] conv2 -> conv2
I0901 10:35:32.092651 21893 net.cpp:120] Setting up conv2
I0901 10:35:32.098098 21893 net.cpp:127] Top shape: 1 256 29 29 (215296)
I0901 10:35:32.098104 21893 layer_factory.hpp:74] Creating layer relu2
I0901 10:35:32.098107 21893 net.cpp:90] Creating Layer relu2
I0901 10:35:32.098109 21893 net.cpp:420] relu2 <- conv2
I0901 10:35:32.098127 21893 net.cpp:367] relu2 -> conv2 (in-place)
I0901 10:35:32.098131 21893 net.cpp:120] Setting up relu2
I0901 10:35:32.098134 21893 net.cpp:127] Top shape: 1 256 29 29 (215296)
I0901 10:35:32.098135 21893 layer_factory.hpp:74] Creating layer norm2
I0901 10:35:32.098140 21893 net.cpp:90] Creating Layer norm2
I0901 10:35:32.098140 21893 net.cpp:420] norm2 <- conv2
I0901 10:35:32.098145 21893 net.cpp:378] norm2 -> norm2
I0901 10:35:32.098146 21893 net.cpp:120] Setting up norm2
I0901 10:35:32.098160 21893 net.cpp:127] Top shape: 1 256 29 29 (215296)
I0901 10:35:32.098162 21893 layer_factory.hpp:74] Creating layer pool2
I0901 10:35:32.098165 21893 net.cpp:90] Creating Layer pool2
I0901 10:35:32.098167 21893 net.cpp:420] pool2 <- norm2
I0901 10:35:32.098170 21893 net.cpp:378] pool2 -> pool2
I0901 10:35:32.098173 21893 net.cpp:120] Setting up pool2
I0901 10:35:32.098176 21893 net.cpp:127] Top shape: 1 256 15 15 (57600)
I0901 10:35:32.098178 21893 layer_factory.hpp:74] Creating layer conv3
I0901 10:35:32.098182 21893 net.cpp:90] Creating Layer conv3
I0901 10:35:32.098184 21893 net.cpp:420] conv3 <- pool2
I0901 10:35:32.098187 21893 net.cpp:378] conv3 -> conv3
I0901 10:35:32.098191 21893 net.cpp:120] Setting up conv3
I0901 10:35:32.105922 21893 net.cpp:127] Top shape: 1 384 15 15 (86400)
I0901 10:35:32.105927 21893 layer_factory.hpp:74] Creating layer relu3
I0901 10:35:32.105931 21893 net.cpp:90] Creating Layer relu3
I0901 10:35:32.105933 21893 net.cpp:420] relu3 <- conv3
I0901 10:35:32.105937 21893 net.cpp:367] relu3 -> conv3 (in-place)
I0901 10:35:32.105938 21893 net.cpp:120] Setting up relu3
I0901 10:35:32.105942 21893 net.cpp:127] Top shape: 1 384 15 15 (86400)
I0901 10:35:32.105942 21893 layer_factory.hpp:74] Creating layer conv4
I0901 10:35:32.105947 21893 net.cpp:90] Creating Layer conv4
I0901 10:35:32.105948 21893 net.cpp:420] conv4 <- conv3
I0901 10:35:32.105952 21893 net.cpp:378] conv4 -> conv4
I0901 10:35:32.105955 21893 net.cpp:120] Setting up conv4
I0901 10:35:32.117748 21893 net.cpp:127] Top shape: 1 384 15 15 (86400)
I0901 10:35:32.117759 21893 layer_factory.hpp:74] Creating layer relu4
I0901 10:35:32.117766 21893 net.cpp:90] Creating Layer relu4
I0901 10:35:32.117769 21893 net.cpp:420] relu4 <- conv4
I0901 10:35:32.117776 21893 net.cpp:367] relu4 -> conv4 (in-place)
I0901 10:35:32.117781 21893 net.cpp:120] Setting up relu4
I0901 10:35:32.117784 21893 net.cpp:127] Top shape: 1 384 15 15 (86400)
I0901 10:35:32.117786 21893 layer_factory.hpp:74] Creating layer conv5
I0901 10:35:32.117792 21893 net.cpp:90] Creating Layer conv5
I0901 10:35:32.117794 21893 net.cpp:420] conv5 <- conv4
I0901 10:35:32.117799 21893 net.cpp:378] conv5 -> conv5
I0901 10:35:32.117804 21893 net.cpp:120] Setting up conv5
I0901 10:35:32.125089 21893 net.cpp:127] Top shape: 1 256 15 15 (57600)
I0901 10:35:32.125097 21893 layer_factory.hpp:74] Creating layer relu5
I0901 10:35:32.125102 21893 net.cpp:90] Creating Layer relu5
I0901 10:35:32.125103 21893 net.cpp:420] relu5 <- conv5
I0901 10:35:32.125107 21893 net.cpp:367] relu5 -> conv5 (in-place)
I0901 10:35:32.125108 21893 net.cpp:120] Setting up relu5
I0901 10:35:32.125111 21893 net.cpp:127] Top shape: 1 256 15 15 (57600)
I0901 10:35:32.125113 21893 layer_factory.hpp:74] Creating layer conv_proposal1
I0901 10:35:32.125118 21893 net.cpp:90] Creating Layer conv_proposal1
I0901 10:35:32.125118 21893 net.cpp:420] conv_proposal1 <- conv5
I0901 10:35:32.125123 21893 net.cpp:378] conv_proposal1 -> conv_proposal1
I0901 10:35:32.125126 21893 net.cpp:120] Setting up conv_proposal1
I0901 10:35:32.130205 21893 net.cpp:127] Top shape: 1 256 15 15 (57600)
I0901 10:35:32.130210 21893 layer_factory.hpp:74] Creating layer relu_proposal1
I0901 10:35:32.130213 21893 net.cpp:90] Creating Layer relu_proposal1
I0901 10:35:32.130215 21893 net.cpp:420] relu_proposal1 <- conv_proposal1
I0901 10:35:32.130219 21893 net.cpp:367] relu_proposal1 -> conv_proposal1 (in-place)
I0901 10:35:32.130221 21893 net.cpp:120] Setting up relu_proposal1
I0901 10:35:32.130223 21893 net.cpp:127] Top shape: 1 256 15 15 (57600)
I0901 10:35:32.130247 21893 layer_factory.hpp:74] Creating layer conv_proposal1_relu_proposal1_0_split
I0901 10:35:32.130255 21893 net.cpp:90] Creating Layer conv_proposal1_relu_proposal1_0_split
I0901 10:35:32.130257 21893 net.cpp:420] conv_proposal1_relu_proposal1_0_split <- conv_proposal1
I0901 10:35:32.130262 21893 net.cpp:378] conv_proposal1_relu_proposal1_0_split -> conv_proposal1_relu_proposal1_0_split_0
I0901 10:35:32.130267 21893 net.cpp:378] conv_proposal1_relu_proposal1_0_split -> conv_proposal1_relu_proposal1_0_split_1
I0901 10:35:32.130273 21893 net.cpp:120] Setting up conv_proposal1_relu_proposal1_0_split
I0901 10:35:32.130277 21893 net.cpp:127] Top shape: 1 256 15 15 (57600)
I0901 10:35:32.130280 21893 net.cpp:127] Top shape: 1 256 15 15 (57600)
I0901 10:35:32.130280 21893 layer_factory.hpp:74] Creating layer proposal_cls_score
I0901 10:35:32.130287 21893 net.cpp:90] Creating Layer proposal_cls_score
I0901 10:35:32.130288 21893 net.cpp:420] proposal_cls_score <- conv_proposal1_relu_proposal1_0_split_0
I0901 10:35:32.130295 21893 net.cpp:378] proposal_cls_score -> proposal_cls_score
I0901 10:35:32.130300 21893 net.cpp:120] Setting up proposal_cls_score
I0901 10:35:32.130347 21893 net.cpp:127] Top shape: 1 18 15 15 (4050)
I0901 10:35:32.130349 21893 layer_factory.hpp:74] Creating layer proposal_bbox_pred
I0901 10:35:32.130355 21893 net.cpp:90] Creating Layer proposal_bbox_pred
I0901 10:35:32.130357 21893 net.cpp:420] proposal_bbox_pred <- conv_proposal1_relu_proposal1_0_split_1
I0901 10:35:32.130362 21893 net.cpp:378] proposal_bbox_pred -> proposal_bbox_pred
I0901 10:35:32.130367 21893 net.cpp:120] Setting up proposal_bbox_pred
I0901 10:35:32.130448 21893 net.cpp:127] Top shape: 1 36 15 15 (8100)
I0901 10:35:32.130451 21893 layer_factory.hpp:74] Creating layer proposal_cls_score_reshape
I0901 10:35:32.130456 21893 net.cpp:90] Creating Layer proposal_cls_score_reshape
I0901 10:35:32.130458 21893 net.cpp:420] proposal_cls_score_reshape <- proposal_cls_score
I0901 10:35:32.130462 21893 net.cpp:378] proposal_cls_score_reshape -> proposal_cls_score_reshape
I0901 10:35:32.130467 21893 net.cpp:120] Setting up proposal_cls_score_reshape
I0901 10:35:32.130473 21893 net.cpp:127] Top shape: 1 2 135 15 (4050)
I0901 10:35:32.130475 21893 layer_factory.hpp:74] Creating layer proposal_cls_score_reshape_proposal_cls_score_reshape_0_split
I0901 10:35:32.130480 21893 net.cpp:90] Creating Layer proposal_cls_score_reshape_proposal_cls_score_reshape_0_split
I0901 10:35:32.130481 21893 net.cpp:420] proposal_cls_score_reshape_proposal_cls_score_reshape_0_split <- proposal_cls_score_reshape
I0901 10:35:32.130486 21893 net.cpp:378] proposal_cls_score_reshape_proposal_cls_score_reshape_0_split -> proposal_cls_score_reshape_proposal_cls_score_reshape_0_split_0
I0901 10:35:32.130491 21893 net.cpp:378] proposal_cls_score_reshape_proposal_cls_score_reshape_0_split -> proposal_cls_score_reshape_proposal_cls_score_reshape_0_split_1
I0901 10:35:32.130496 21893 net.cpp:120] Setting up proposal_cls_score_reshape_proposal_cls_score_reshape_0_split
I0901 10:35:32.130497 21893 net.cpp:127] Top shape: 1 2 135 15 (4050)
I0901 10:35:32.130501 21893 net.cpp:127] Top shape: 1 2 135 15 (4050)
I0901 10:35:32.130501 21893 layer_factory.hpp:74] Creating layer labels_reshape
I0901 10:35:32.130506 21893 net.cpp:90] Creating Layer labels_reshape
I0901 10:35:32.130507 21893 net.cpp:420] labels_reshape <- labels
I0901 10:35:32.130512 21893 net.cpp:378] labels_reshape -> labels_reshape
I0901 10:35:32.130515 21893 net.cpp:120] Setting up labels_reshape
I0901 10:35:32.130519 21893 net.cpp:127] Top shape: 1 1 135 15 (2025)
I0901 10:35:32.130522 21893 layer_factory.hpp:74] Creating layer labels_reshape_labels_reshape_0_split
I0901 10:35:32.130524 21893 net.cpp:90] Creating Layer labels_reshape_labels_reshape_0_split
I0901 10:35:32.130527 21893 net.cpp:420] labels_reshape_labels_reshape_0_split <- labels_reshape
I0901 10:35:32.130530 21893 net.cpp:378] labels_reshape_labels_reshape_0_split -> labels_reshape_labels_reshape_0_split_0
I0901 10:35:32.130535 21893 net.cpp:378] labels_reshape_labels_reshape_0_split -> labels_reshape_labels_reshape_0_split_1
I0901 10:35:32.130545 21893 net.cpp:120] Setting up labels_reshape_labels_reshape_0_split
I0901 10:35:32.130548 21893 net.cpp:127] Top shape: 1 1 135 15 (2025)
I0901 10:35:32.130551 21893 net.cpp:127] Top shape: 1 1 135 15 (2025)
I0901 10:35:32.130553 21893 layer_factory.hpp:74] Creating layer labels_weights_reshape
I0901 10:35:32.130558 21893 net.cpp:90] Creating Layer labels_weights_reshape
I0901 10:35:32.130559 21893 net.cpp:420] labels_weights_reshape <- labels_weights
I0901 10:35:32.130564 21893 net.cpp:378] labels_weights_reshape -> labels_weights_reshape
I0901 10:35:32.130568 21893 net.cpp:120] Setting up labels_weights_reshape
I0901 10:35:32.130571 21893 net.cpp:127] Top shape: 1 1 135 15 (2025)
I0901 10:35:32.130573 21893 layer_factory.hpp:74] Creating layer loss
I0901 10:35:32.130578 21893 net.cpp:90] Creating Layer loss
I0901 10:35:32.130580 21893 net.cpp:420] loss <- proposal_cls_score_reshape_proposal_cls_score_reshape_0_split_0
I0901 10:35:32.130583 21893 net.cpp:420] loss <- labels_reshape_labels_reshape_0_split_0
I0901 10:35:32.130584 21893 net.cpp:420] loss <- labels_weights_reshape
…
